test/3d_bn_relu.onnx (onnx, 1346 bytes, 6 tensors)

conv_3d.0.bias f4 [6]
000000 54 6b 03 be e9 3c 3c be c8 10 3e 3d e0 b8 97 3d
       -0.12833911 -0.1838261 0.046402723 0.07408309
000010 c0 14 8a 3b 2d ec de bd
       0.0042138994 -0.10884891

conv_3d.0.weight f4 [6, 3, 2, 2, 2]
000000 22 91 41 3e 79 9a ed bd b8 c0 2f be c0 46 6e bd
       0.1890302 -0.11601729 -0.1716336 -0.05817294
000010 26 23 96 bd ea 7c 87 bd 59 9b 1c be 80 8f 52 3d
       -0.07330923 -0.06615622 -0.15293635 0.051406384
000020 f4 cb 2c 3d 88 46 72 3d 1f e1 ae bd 30 f3 14 bd
       0.042186692 0.059149295 -0.08539032 -0.036364734
000030 30 a3 dc 3d d0 df 35 3e 48 02 f4 bc 74 dc fb 3d
       0.10773313 0.17761159 -0.029786244 0.122979075
000040 b4 79 09 3e 4a ba 14 be be 8f 04 be 14 76 90 3d
       0.13425332 -0.14524189 -0.12945458 0.070537716
000050 de 7b 32 3e 80 e2 3c bb 30 6c 23 bd b4 d2 cf bd
       0.17430064 -0.0028821528 -0.039898098 -0.1014761
000060 3c f3 1d be 14 dd c0 bd 41 83 d6 bd 30 54 20 3c
       -0.15424818 -0.09417167 -0.104742534 0.009785697
000070 10 2c be bc 58 a3 71 bd e0 da 53 bc 22 6a 04 be
       -0.02321437 -0.058993667 -0.012930602 -0.12931111
000080 ae 33 48 3e fc 4a 95 3d 06 f8 2d 3e 1c d6 42 3e
       0.19550964 0.07289693 0.16989145 0.19026989
000090 d8 1c 88 bd 40 5a 9b bd 1c a3 1f bd 7c f9 38 3d
       -0.066461265 -0.07585573 -0.038973913 0.0451598
0000a0 a0 7b 58 bc 08 5c 97 bc a0 22 70 bc 18 90 31 bd
       -0.013213068 -0.018476501 -0.014656693 -0.04335031
0000b0 80 b4 93 3d 23 02 3b be cf 81 a5 bd 7c 54 be 3d
       0.07212162 -0.18262534 -0.080814 0.09293458
0000c0 64 82 1b 3d 1c 56 87 bd 32 b3 2a 3e a0 44 f0 bc
       0.037966147 -0.06608221 0.1666992 -0.029329598
0000d0 d7 88 3b be 44 01 82 bd 2e 8d 32 3e 00 99 b3 3d
       -0.18313919 -0.06347898 0.17436668 0.08769417
0000e0 80 a4 eb 3c 5c ab 2e be 08 03 fc 3c 4e f8 40 3e
       0.028764963 -0.17057556 0.030763164 0.1884472
0000f0 f0 7d b6 3c c8 61 cc bc c4 2c 82 3d 03 fd ce bd
       0.022276849 -0.02494897 0.063561946 -0.10106852
000100 c8 a8 e7 3d d8 d6 83 bd 7e 49 2e 3e 06 af 05 3e
       0.11311489 -0.064374626 0.17020223 0.13055047
000110 fc 7b 1c be a6 ba 27 3e 9e cb 1b 3e b8 5f 34 bd
       -0.15281671 0.16379794 0.15214393 -0.044036597
000120 a8 a0 f6 3d c8 5f c9 3d 98 e4 f4 bc 62 0f 3d 3e
       0.120423615 0.09832722 -0.029894158 0.184629
000130 e4 5b f5 3d 84 8d a6 3d 23 99 a2 bd 7d db a7 bd
       0.11980417 0.08132461 -0.07939365 -0.08196161
000140 fc 07 b0 3d 24 76 0e bd 8a bc 0e be e2 ad 9c bd
       0.08595273 -0.034780636 -0.1393911 -0.07650353
000150 ee ed 35 3e 8e c7 0d 3e 80 59 16 bd 52 6a 48 be
       0.17766544 0.13845655 -0.036706448 -0.19571808
000160 68 28 27 3e 17 b5 1b be 68 37 de bc 10 f1 7d bc
       0.16324008 -0.15205799 -0.02712603 -0.015499368
000170 d4 0b 11 3e c8 db c7 bd a5 02 de bd 6f 78 bb bd
       0.14164668 -0.09758717 -0.10840348 -0.0915383
000180 6e 04 16 be 20 13 70 bd 2b e7 27 be 30 dd 96 3d
       -0.14650127 -0.05861199 -0.16396777 0.07366407
000190 7c d3 3a 3e 0e bc 20 3e 0f fe 41 be f0 53 38 bd
       0.18244737 0.15696737 -0.18944572 -0.045001924
0001a0 14 05 4c 3e 42 eb 47 be 60 e5 bc 3b a0 e4 26 bc
       0.19923812 -0.19523337 0.0057646483 -0.010186344
0001b0 b5 8e c0 bd 7a 7d 45 be c8 ee c1 bd 20 12 d5 3d
       -0.09402219 -0.19286147 -0.09469372 0.10403848
0001c0 20 e6 ba 3c 05 40 ad bd 68 a1 70 3d e8 e4 f2 3d
       0.02281481 -0.084594764 0.05874768 0.11860067
0001d0 a0 f0 c2 3d 90 b9 58 3d c6 d9 19 be 50 4c 4b 3e
       0.09518552 0.05291134 -0.1502448 0.1985333
0001e0 80 ec f0 3a d0 72 3b 3e 0d e4 4e be 33 6d e2 bd
       0.0018381029 0.18305516 -0.20204182 -0.11055984
0001f0 d4 57 88 bd 1c d7 2b be 6f 38 3b be ee aa 18 be
       -0.06657377 -0.16781276 -0.18283246 -0.14908955
000200 00 14 b6 39 b0 ce a5 bd c0 f1 cf 3c 24 a3 41 3e
       0.00034728646 -0.08096063 0.02538383 0.1890989
000210 90 79 86 3d 84 21 ed bd 18 39 5d bd a2 8e 45 3e
       0.06566155 -0.11578658 -0.054009527 0.19292691
000220 f0 d8 2e be 58 4b d1 3d 5c 44 bb 3d 9c 1b 26 be
       -0.17074943 0.10219449 0.09143898 -0.1622147
000230 34 01 df 3d 36 1f 1d be 1f 05 de bd ed d9 0e be
       0.10888901 -0.15343937 -0.108408205 -0.1395032

conv_3d.1.bias f4 [6]
000000 00 00 00 00 00 00 00 00 00 00 00 00 00 00 00 00
       0.0 0.0 0.0 0.0
000010 00 00 00 00 00 00 00 00
       0.0 0.0

conv_3d.1.running_mean f4 [6]
000000 00 00 00 00 00 00 00 00 00 00 00 00 00 00 00 00
       0.0 0.0 0.0 0.0
000010 00 00 00 00 00 00 00 00
       0.0 0.0

conv_3d.1.running_var f4 [6]
000000 00 00 80 3f 00 00 80 3f 00 00 80 3f 00 00 80 3f
       1.0 1.0 1.0 1.0
000010 00 00 80 3f 00 00 80 3f
       1.0 1.0

conv_3d.1.weight f4 [6]
000000 00 00 80 3f 00 00 80 3f 00 00 80 3f 00 00 80 3f
       1.0 1.0 1.0 1.0
000010 00 00 80 3f 00 00 80 3f
       1.0 1.0
