test/conv3d.onnx (onnx, 904 bytes, 2 tensors)

bias f4 [6]
0	0xbe3fbdff	-0.18724822
1	0x3c68ffd0	0.014221147
2	0xbce8cee8	-0.028418973
3	0xbe4da608	-0.20082867
4	0xbe16c3b1	-0.14723088
5	0x3c8af720	0.016963542

weight f4 [6, 3, 2, 2, 2]
0	0x3d7450b0	0.059647262
1	0xbdfe8331	-0.124273665
2	0x3d344778	0.04401347
3	0xbde9de16	-0.11419313
4	0xbe4639fc	-0.19358057
5	0x3d8d0fbc	0.06887767
6	0xbda6ba0e	-0.08140956
7	0xbcddff38	-0.027099237
8	0x3e30b9c2	0.17258361
9	0x3d2e5474	0.04256101
10	0xbe4db8aa	-0.20089975
11	0xbda923cf	-0.08258783
12	0x3dbd5188	0.092440665
13	0xbe009343	-0.12556176
14	0x3d6ab738	0.057303637
15	0xbd2ff2e0	-0.042956233
16	0x3de05bf4	0.10955039
17	0x3e438322	0.19092992
18	0x3e384e18	0.1799854
19	0x3db6d388	0.08927065
20	0x3e03c0dc	0.12866539
21	0x3e13e2a6	0.14441928
22	0xbd7fdc70	-0.062466085
23	0xbd59ad74	-0.053143933
24	0xbd0f3918	-0.03496656
25	0xbd2d81c4	-0.042360082
26	0xbd85bcbc	-0.06530139
27	0x3df826fc	0.12116811
28	0x3d93d548	0.072184145
29	0x3dddc048	0.1082769
30	0xbc0e0230	-0.008667514
31	0xbdf482ac	-0.11938986
32	0x3bfe0820	0.0077524334
33	0xbe220710	-0.15823007
34	0xbe0430c8	-0.12909234
35	0xbdbec255	-0.0931441
36	0x3da74d74	0.0816907
37	0xbe342355	-0.17591603
38	0x3df70b74	0.120627314
39	0x3da8687c	0.08223054
40	0xbdf40894	-0.11915699
41	0xbcc75580	-0.024332762
42	0xbd79bcc8	-0.06097105
43	0x3e3c265a	0.18374005
44	0xbd88c838	-0.06678814
45	0x3dbd1ed8	0.092343986
46	0xbdcf3cb6	-0.101190016
47	0x3e179a90	0.14805055
48	0x3e4deeca	0.20110622
49	0x3c997b28	0.018735483
50	0x3de62e18	0.112392604
51	0x3e1866f2	0.1488302
52	0xbe128638	-0.14309013
53	0x3e0fd5dc	0.14046425
54	0xbd4f457c	-0.050603375
55	0xbde1e0dd	-0.110292174
56	0x3e401676	0.18758568
57	0xbda9a91e	-0.0828421
58	0xbdb0619d	-0.08612368
59	0x3be4e5e0	0.006985411
60	0xbadaea80	-0.0016701967
61	0x3e120fec	0.14263886
62	0xbd95ced2	-0.073148385
63	0xbdd662d9	-0.104680724
64	0x3dd7e990	0.105425954
65	0x3e1630b2	0.14667013
66	0xbda814a2	-0.082070604
67	0xbde2bb09	-0.110708304
68	0x3d97d734	0.074140936
69	0xbe44ca6c	-0.19217843
70	0x3d9fee40	0.078091145
71	0x3e161cea	0.14659467
72	0xbda3860d	-0.079845525
73	0xbdd898cc	-0.10576019
74	0xbe201b24	-0.15635353
75	0x3d48bb50	0.04900676
76	0xbb069500	-0.0020535588
77	0xbe410966	-0.18851241
78	0xbd9b6638	-0.07587856
79	0xbe131c81	-0.14366342
80	0x3e4ff138	0.20306861
81	0x3d349750	0.044089615
82	0xbe3fc52c	-0.18727559
83	0xba278100	-0.0006389767
84	0xbe1fac9c	-0.15593189
85	0xbe127021	-0.14300586
86	0x3d36d31c	0.044634923
87	0x3dbee2c8	0.09320599
88	0x3e3cbd4a	0.18431583
89	0xbe1ffd74	-0.15624028
90	0xbd22c938	-0.03974268
91	0xbdce6c60	-0.10079265
92	0xbcb0bd00	-0.021574497
93	0x3c1f7dc0	0.009734571
94	0x3dfe7fe8	0.1242674
95	0xbd6b45bc	-0.05743955
96	0x3e34adb0	0.17644382
97	0x3cc6dae0	0.02427429
98	0xbe18bc05	-0.14915474
99	0xbe23e0f0	-0.16003776
100	0xbcd026d0	-0.025409132
101	0x3d4c7718	0.049918264
102	0x3e275a88	0.16343129
103	0xbdeb95ef	-0.11503207
104	0xbd9071b4	-0.07052937
105	0xbdd97f0f	-0.10619938
106	0x3d7a8a80	0.06116724
107	0x3e25382e	0.16134712
108	0x3c89a460	0.016802013
109	0x3e0b4c6a	0.13603368
110	0xbe1b173f	-0.15145586
111	0xbdcbe716	-0.099561855
112	0xbdb9b981	-0.09068585
113	0x3dbefc84	0.09325507
114	0xbd28960c	-0.04115872
115	0xbd2c0344	-0.0419953
116	0xbdaa3311	-0.083105214
117	0xbe06624d	-0.13123436
118	0xbd99a8c0	-0.0750289
119	0xbde18061	-0.110108145
120	0x3de7809c	0.11303827
121	0xbd89c0b4	-0.06726208
122	0x3d7435e8	0.05962172
123	0xbdec2dc1	-0.11532164
124	0xbd010f14	-0.03150852
125	0xb98f8000	-0.00027370453
126	0x3cf3d668	0.029765323
127	0xbe44e3e6	-0.19227561
128	0xbad02300	-0.0015879571
129	0x3e4e1d58	0.20128381
130	0xbdeefd82	-0.116694465
131	0x3e46c430	0.19410777
132	0xbdb77c4c	-0.089592546
133	0x3e28fbe0	0.16502333
134	0xbd43aae0	-0.04777038
135	0xbe04e274	-0.1297701
136	0xbda006e4	-0.07813814
137	0x3c325060	0.010883421
138	0x3d2ef168	0.04271069
139	0x3ced7f98	0.028991506
140	0xbd1fcde0	-0.039014697
141	0xbd7b4358	-0.06134352
142	0x3e12998e	0.14316389
143	0x3dee6264	0.1163986
