test/conv2d.onnx (onnx, 2162 bytes, 2 tensors)

bias f4 [6]
0	0x3dd4eb4e	0.10396443
1	0xbde5d308	-0.11221892
2	0xbcee72f4	-0.029107548
3	0xbda804fc	-0.08204076
4	0x3d2e8f48	0.042617112
5	0x3da5983e	0.080856785

weight f4 [6, 3, 5, 5]
0	0xbda51a1c	-0.080616206
1	0x3b66bb80	0.0035206974
2	0xbdd9ca72	-0.106343165
3	0xbda88b43	-0.08229687
4	0xbd9fc0e3	-0.07800462
5	0xbd93fcf2	-0.0722598
6	0x3d889e42	0.0667081
7	0xbdec167d	-0.11527727
8	0xbd824bea	-0.06362136
9	0x3da8c330	0.08240354
10	0x3d8044a4	0.06263092
11	0xbd525fde	-0.051360957
12	0x3d646f1c	0.055770025
13	0x3b77f380	0.0037834346
14	0x3d06a638	0.032873362
15	0xbd080334	-0.03320618
16	0x3d83b5be	0.06431149
17	0x3d0735d0	0.033010304
18	0x3cc31d60	0.023817718
19	0x3d93fdc4	0.07226136
20	0x3d13612c	0.035981342
21	0xbd5177d8	-0.051139683
22	0x3cae0b20	0.02124554
23	0x3cda3d40	0.026640534
24	0x3d13c70c	0.036078498
25	0x3d85a348	0.06525284
26	0x3a40e800	0.00073587894
27	0xbda53030	-0.08065832
28	0xbc007430	-0.007840201
29	0x3d3e3c88	0.046444446
30	0x3d921f32	0.07134856
31	0x3d946ad8	0.07246941
32	0xbdddd9ae	-0.10832535
33	0x3dbe1932	0.092821494
34	0xbdeb80d2	-0.1149918
35	0x3de16a3c	0.11006591
36	0x3d7aa558	0.06119284
37	0xbdc47356	-0.09592311
38	0x3d541f24	0.05178751
39	0x3dcc0fb8	0.099639356
40	0x3c1440a0	0.009048611
41	0xbc118348	-0.008881398
42	0x3db9a88a	0.090653494
43	0xbc2204f8	-0.00988888
44	0x3d961ac8	0.07329327
45	0xbd3fd670	-0.046835363
46	0x3d0e9d5c	0.03481804
47	0x3da165dc	0.07880756
48	0xbc1653c0	-0.009175241
49	0xbb75aa20	-0.0037485436
50	0xbd16e234	-0.036836818
51	0xbb8deb80	-0.0043310523
52	0x3bfaffa0	0.0076598674
53	0x3db53822	0.08848597
54	0x3d7b570c	0.06136231
55	0xbd1d5540	-0.03841138
56	0x3c8533a0	0.016259968
57	0x3b627d00	0.003455937
58	0x3da36b64	0.079794675
59	0x3caac778	0.020847067
60	0xbc082448	-0.008309431
61	0x3dd6eca4	0.10494354
62	0x3d84f5c0	0.064921856
63	0x3d040cf4	0.032238916
64	0x3db3cc60	0.08779216
65	0x3ce1dfd8	0.027572557
66	0xbdd09c82	-0.101861015
67	0xbce55a20	-0.027997077
68	0xbd4517b8	-0.048118323
69	0xbdbba5be	-0.09162472
70	0x3da37404	0.079811126
71	0xbc6c7280	-0.014431596
72	0xbda5de58	-0.08099049
73	0x3da3094e	0.07960759
74	0xbd30484c	-0.043037698
75	0xbd183266	-0.03715744
76	0x3c3f4d40	0.011676133
77	0x3da6da7a	0.0814714
78	0xbc5566a8	-0.013024963
79	0x3d8b8714	0.068128735
80	0xbcdff358	-0.027337715
81	0xbdce1324	-0.100622445
82	0x3c2b19e0	0.010443181
83	0xbca1d7d0	-0.019756228
84	0xbdea4af6	-0.11440079
85	0x3c11cda0	0.0088991225
86	0x3cf28ad8	0.029607221
87	0xbde0b389	-0.109717436
88	0x3d43535c	0.04768692
89	0xbdc55888	-0.096360266
90	0xbcf9cc68	-0.030492976
91	0x3dbb7318	0.09152812
92	0x3d826be2	0.06368233
93	0xbdd3a272	-0.10333718
94	0xbd081e8a	-0.03323225
95	0xbd0b9cbc	-0.03408502
96	0xbcc386b0	-0.023867935
97	0xbd300cf6	-0.04298111
98	0x3cba0908	0.022709385
99	0x3d432d10	0.047650397
100	0x3d0cb948	0.034356385
101	0x3c4af470	0.01238738
102	0xbde80c8f	-0.1133052
103	0x3d632404	0.05545427
104	0x3d91074a	0.070814684
105	0xbd516a0c	-0.051126525
106	0xbdaf10d8	-0.085481346
107	0xbd9fe2aa	-0.078069046
108	0x3dbe9ff6	0.09307854
109	0x3d9e8594	0.07740322
110	0x3de2ee96	0.11080663
111	0xbd7b9cc6	-0.061428808
112	0xbdca1a2f	-0.098682754
113	0xbce76f40	-0.02825129
114	0xbddcab06	-0.10774808
115	0x3d240b18	0.040049642
116	0x3dbf3c8a	0.09337719
117	0xbd27f8f6	-0.041008912
118	0xbdc38095	-0.095460095
119	0xbdd16265	-0.102238454
120	0xbca1b6d0	-0.019740492
121	0x3da27ce0	0.07933974
122	0xbc980958	-0.018559143
123	0xbb32d980	-0.0027290285
124	0x3b97eab0	0.004636131
125	0xbdcea3db	-0.10089847
126	0x3d2110b8	0.039322585
127	0xbd4db0b2	-0.050217338
128	0xbbac6790	-0.005261369
129	0xba75f800	-0.0009382963
130	0x3ca78308	0.020448223
131	0x3d4b520c	0.049638793
132	0x3c87ef48	0.01659359
133	0x3d68b7f4	0.056816056
134	0x3d85c248	0.06531197
135	0xbddd557e	-0.10807322
136	0xbd7eda3d	-0.062219847
137	0x3cef8450	0.029237896
138	0x3c06dc90	0.008231297
139	0x3d8fded0	0.0702492
140	0xbd03f046	-0.032211564
141	0xbcc784ac	-0.024355255
142	0x3de1182a	0.10990937
143	0xbdb539c6	-0.0884891
144	0xbdb14608	-0.086559355
145	0xbcc39944	-0.023876794
146	0x3dd638e2	0.10460068
147	0x3dd58f1c	0.104276866
148	0xbdd9d4bd	-0.1063628
149	0x3dd9e6be	0.10639714
150	0x3ce6e6d8	0.028186247
151	0xbd30aa76	-0.043131314
152	0x3d80e47e	0.062935814
153	0xbd3654c4	-0.044514433
154	0x3d53ba70	0.051691473
155	0xbdc0bdf4	-0.09411231
156	0xbdd83121	-0.105562456
157	0xb8ba4000	-8.881092e-05
158	0xbda8d38e	-0.08243476
159	0xbd9bce6a	-0.0760773
160	0xbd4e3392	-0.05034215
161	0x3d82c3d6	0.06385009
162	0x3da00772	0.0781392
163	0xbd86c06e	-0.06579672
164	0xbdc95073	-0.098297976
165	0xbdb29118	-0.08719081
166	0x3d9ef954	0.07762399
167	0x3d2ce47c	0.042210087
168	0x3c082888	0.008310445
169	0x3c883148	0.016625062
170	0x3c92ddb0	0.017927974
171	0x3ddd6ac2	0.10811378
172	0x3d0193b4	0.031635
173	0x3d9e6b00	0.077352524
174	0x3bc67e50	0.006057538
175	0xbdb7e821	-0.08979822
176	0xbd49f1b4	-0.04930277
177	0x3db39f0a	0.08770569
178	0x3dcbd04c	0.09951839
179	0x3dcf4a76	0.10121624
180	0xbd72ef13	-0.05931003
181	0x3dcaea4c	0.0990797
182	0xbc936768	-0.017993644
183	0x3d96b1b8	0.07358116
184	0x3d219b84	0.039454952
185	0xbd68bdf8	-0.056821793
186	0xbd77c980	-0.0604949
187	0xbcf8dae8	-0.03037782
188	0xbcc2b220	-0.023766577
189	0x3dd8d936	0.10588305
190	0x3c8b4490	0.017000467
191	0xbd4e9100	-0.05043125
192	0xbd1def9c	-0.038558587
193	0xbde970dc	-0.11398479
194	0x3c42eb40	0.011896908
195	0x3c1a4d28	0.00941781
196	0x3d8911d2	0.06692852
197	0x3d9b8278	0.07593244
198	0xbc418f98	-0.011814021
199	0x3d72d730	0.05928725
200	0xbd147018	-0.036239713
201	0x3d92288e	0.071366414
202	0xbcbf173c	-0.023326509
203	0xbd3270ac	-0.043564484
204	0x3de7d512	0.11319937
205	0xbdb10fee	-0.086456165
206	0x3b2f2180	0.0026722848
207	0xbda9963e	-0.082806095
208	0x3d8c8e7c	0.06863114
209	0xbdbc82c6	-0.092046306
210	0xbd804354	-0.06262842
211	0xbdd9b2ce	-0.106298074
212	0x3cd390e8	0.025825933
213	0xbda2fe9e	-0.079587206
214	0xbdcf4ec4	-0.10122445
215	0xbcd86064	-0.02641315
216	0xbd9b1580	-0.0757246
217	0x3cbe70a0	0.023247063
218	0xbd621881	-0.05519915
219	0xbcfcce6c	-0.030860148
220	0x3c914648	0.017733708
221	0xbd96d7e8	-0.073653996
222	0x3d8eebce	0.0697857
223	0x3c5a7080	0.013332486
224	0x39dd4700	0.00042205304
225	0xbd9ff9ac	-0.07811293
226	0xbcd98114	-0.026550807
227	0xbda8199c	-0.082080096
228	0xbc11b8c8	-0.008894153
229	0xbd2045fc	-0.039129242
230	0xbdb85e3c	-0.09002349
231	0x3d98a492	0.07453264
232	0x3d35fc04	0.044429794
233	0x3c227920	0.009916574
234	0xbdbb95cd	-0.091594316
235	0xbd92121a	-0.07132359
236	0x3de865b8	0.11347526
237	0x3caf34f8	0.021387562
238	0x3c345800	0.011007309
239	0x3de79e5e	0.11309503
240	0x3d91305e	0.070893034
241	0xbd0cf0aa	-0.034409203
242	0xbc963f50	-0.018340737
243	0x3da8db08	0.08244902
244	0xbc0bfd48	-0.008544274
245	0xbd8fa0c2	-0.07013084
246	0xbd111c58	-0.03542742
247	0xbde7387b	-0.1129007
248	0x3d703ebc	0.05865358
249	0xbc6b5dc8	-0.014365621
250	0x3d7e13a4	0.06203045
251	0xbcca5534	-0.024698831
252	0x3b77e860	0.0037827715
253	0x3d06d8c4	0.032921568
254	0xbd6c41fc	-0.057680115
255	0xbcceedbc	-0.025259845
