test/model.tflite (tflite, 4328 bytes, 7 tensors)

dense/MatMul_bias f4 [16]
0	0x3f1d20aa	0.61377966
1	0xbe7e72db	-0.24848501
2	0xbeb40698	-0.3516128
3	0xbf0dc89a	-0.5538422
4	0xbec9f080	-0.394413
5	0xbd482224	-0.048860684
6	0xbecff526	-0.4061672
7	0xbe54addc	-0.20769447
8	0x3e9b92eb	0.30385527
9	0x3ec0b2b2	0.37636334
10	0x00000000	0.0
11	0x00000000	0.0
12	0x3f01d5e7	0.50717014
13	0xbc6abd58	-0.01432737
14	0x00000000	0.0
15	0x3ddf275a	0.108961776

dense/kernel/read/transpose f4 [16, 4]
0	0xbe0806e3	-0.13283877
1	0x3ec7a363	0.38991842
2	0xbd2ffc3f	-0.04296517
3	0xbdf5bfad	-0.1199945
4	0xbe667689	-0.22506155
5	0x3d13bf14	0.0360709
6	0x3bd22489	0.0064130467
7	0xbd936e31	-0.07198752
8	0x3ea542a8	0.32277417
9	0x3e8d1edb	0.27562603
10	0xbe144cbb	-0.14482395
11	0x3e995ae8	0.29952168
12	0x3df502ab	0.119633995
13	0xbf043796	-0.5164732
14	0x3e3a4c3e	0.18193147
15	0xbdee2ae3	-0.11629274
16	0xbe6aea52	-0.22940949
17	0xbf208743	-0.62706393
18	0x3e870e9f	0.26378343
19	0xbf7747af	-0.96593755
20	0xbf18ab3f	-0.596363
21	0xbea5b1b4	-0.3236214
22	0x3e238d7f	0.15971945
23	0x3cb7b334	0.022424318
24	0xbda126da	-0.078687385
25	0xbdfafea2	-0.122555986
26	0x3d73b885	0.059502143
27	0xbebdd485	-0.37076202
28	0x3ee48abb	0.44637093
29	0x3df6fd0d	0.12059984
30	0xbd9b6fd5	-0.0758969
31	0x3debb143	0.11508419
32	0x3e2fcb55	0.17167409
33	0xbe1537e1	-0.14572097
34	0xbd8f904a	-0.07009943
35	0x3e298247	0.16553603
36	0xbe252459	-0.16127147
37	0xbe3aba38	-0.182351
38	0x3eb56710	0.35430193
39	0xbea773f8	-0.32705665
40	0x3d533027	0.051559594
41	0xbee4a061	-0.4465361
42	0xbd9cdef5	-0.07659713
43	0xbe648342	-0.22315696
44	0xbe838e67	-0.25694582
45	0xbe5bf3cb	-0.21479718
46	0xbdfa5c8c	-0.12224683
47	0xbecba843	-0.3977681
48	0x3e8baa53	0.27278385
49	0x3cd7a98c	0.026325963
50	0xbd447013	-0.047958445
51	0x3e31208b	0.1729757
52	0xbce632fd	-0.028100485
53	0x3e76b83a	0.24093714
54	0x3b848623	0.0040443107
55	0xbed70569	-0.41996315
56	0x3c2bd0eb	0.010486822
57	0xbebf69b4	-0.37385333
58	0xbee6ef8d	-0.45104638
59	0xbeadb076	-0.33923692
60	0xbf21378e	-0.62975395
61	0x3ed1475d	0.40874758
62	0xbe8d270c	-0.27568853
63	0xbe7ce802	-0.24697879

dense_1/MatMul_bias f4 [16]
0	0xbd645855	-0.055748302
1	0xbe5e27da	-0.2169489
2	0xbefeb615	-0.49748293
3	0xbef072ab	-0.46962485
4	0x3ed14798	0.40874934
5	0x3e0dd59f	0.13851021
6	0xbf370c1e	-0.71502864
7	0x3f3a6a68	0.72818613
8	0x3e835b06	0.25655383
9	0x3ec0fa6b	0.37691054
10	0x3ecefdd1	0.40428022
11	0xbcd60371	-0.026124688
12	0x3f127e4b	0.5722396
13	0xbcf47506	-0.029840957
14	0x3d2d1355	0.042254765
15	0x3eb34e43	0.35020646

dense_1/kernel/read/transpose f4 [16, 16]
0	0xbf071771	-0.52770144
1	0x3d9f444d	0.07776699
2	0xbdedb40a	-0.11606605
3	0x3e2c752b	0.16841571
4	0xbe09c56c	-0.13454217
5	0x3e7a5725	0.24447306
6	0xbe53c07a	-0.20678893
7	0x3eaccd9e	0.33750623
8	0xbec1aca1	-0.37827018
9	0xbe8356e1	-0.2565222
10	0x3dbd0ce4	0.09230974
11	0xbe3e4618	-0.18581426
12	0x3eb1e5c9	0.34745625
13	0xbf1476b5	-0.5799363
14	0xbe89d271	-0.26918367
15	0xbe1fa8c0	-0.15591717
16	0xbf09544f	-0.5364427
17	0xbece3c7a	-0.40280515
18	0x3d885608	0.06657034
19	0x3d4e76ff	0.050406452
20	0x3dbd6cb3	0.09249248
21	0x3e483383	0.195509
22	0x3d2abe34	0.041685298
23	0x3dc483a4	0.09595421
24	0xbe541478	-0.20710933
25	0x3d848e5d	0.06472466
26	0x3ea8073a	0.32818013
27	0xbd40d567	-0.047078516
28	0xbeab1ad1	-0.33418897
29	0x3e3281c6	0.17432317
30	0xbe98d204	-0.2984773
31	0x3ee913cb	0.45522913
32	0xbf29a786	-0.66271245
33	0xbe5edf30	-0.21764827
34	0x3f135758	0.5755515
35	0x3e06c1af	0.13159822
36	0x3de3c2a9	0.11121113
37	0xbd212034	-0.039337352
38	0xbe9b6bcf	-0.3035569
39	0xbf105c39	-0.5639072
40	0x3ddb52f8	0.107091844
41	0x3e1ff9ec	0.15622681
42	0xbe1a8acd	-0.15092011
43	0x3eebde0d	0.4606785
44	0xbf138476	-0.57623994
45	0xbec4ab44	-0.38411915
46	0xbe0c095f	-0.1367545
47	0x3f374a4a	0.7159773
48	0xbe42d175	-0.19025214
49	0x3e0e076c	0.13870019
50	0xbdcdc4a4	-0.10047272
51	0x3e9c730e	0.3055653
52	0xbecf1578	-0.40446067
53	0x3dffac26	0.124840066
54	0xbeee1dcc	-0.46507108
55	0x3ee5fecc	0.44920957
56	0x3f1ff45a	0.62482226
57	0x3e85e390	0.2615018
58	0x3eb34cf9	0.35019663
59	0xbba92c59	-0.0051627574
60	0xbe79e201	-0.2440262
61	0x3d99e256	0.07513873
62	0xbde2f525	-0.11081914
63	0xbe3943db	-0.18092291
64	0x3e3c29c0	0.18375301
65	0x3bdeec3f	0.006803065
66	0xbe3fee84	-0.1874333
67	0xbee8a9cc	-0.45442045
68	0xbe0eb460	-0.13935995
69	0x3e00732c	0.12543935
70	0x3eca593d	0.39521208
71	0xbe0baa65	-0.13639219
72	0x3a2f94b2	0.00066978775
73	0xbd332d14	-0.04374416
74	0x3c92cef9	0.017920958
75	0x3d11c8f8	0.03559205
76	0x3dbf02b4	0.093266875
77	0x3de063fb	0.1095657
78	0x3ed2f7ef	0.41204783
79	0x3ec9249b	0.3928574
80	0x3de15fd9	0.110046096
81	0xbcf918dd	-0.030407364
82	0xbe9c3771	-0.30511048
83	0x3e07f7da	0.13278142
84	0x3e5e64f1	0.21718194
85	0xbe25ef46	-0.16204557
86	0x3c105de2	0.008811446
87	0x3eaba66e	0.33525413
88	0xbe41ede8	-0.1893841
89	0xbe066333	-0.13123779
90	0xbc7d4fd2	-0.015460925
91	0xbe97ee02	-0.29673773
92	0xbea1e153	-0.3161722
93	0xbe1da98f	-0.15396713
94	0xbe635ed3	-0.22204141
95	0xbf066deb	-0.5251147
96	0x3eec64ba	0.46170598
97	0xbe09ccf4	-0.1345709
98	0x3ee9f160	0.45691967
99	0xbf27fbe8	-0.65618753
100	0xbc274ead	-0.010211629
101	0xbeb55ac6	-0.35420817
102	0x3e848e40	0.25889778
103	0x3ae94204	0.0017796163
104	0xbcd063ce	-0.025438216
105	0x3ee72b44	0.45150197
106	0xbd8c9f96	-0.06866376
107	0xbd08e7d5	-0.033424217
108	0xbdc46b8a	-0.09590824
109	0x3c8825d9	0.01661961
110	0x3df2bd56	0.11852519
111	0x3e59c504	0.21266562
112	0x3ebee43e	0.3728351
113	0x3e5980f7	0.21240602
114	0xbe88c26e	-0.26710838
115	0xbe02c87b	-0.1277179
116	0xbe5d5a36	-0.21616444
117	0xbe181da6	-0.1485506
118	0xbec42328	-0.38308072
119	0x3d670c08	0.05640796
120	0x3ee4a4ae	0.4465689
121	0x3ec29bd9	0.38009527
122	0x3e4b43a0	0.19850016
123	0xbee66cab	-0.45004782
124	0x3dd6f156	0.1049525
125	0xbd584476	-0.052799664
126	0x3ed41479	0.4142187
127	0x3e29b14f	0.16571544
128	0x3ea8233e	0.32839388
129	0x3e75f281	0.24018289
130	0x3e352c69	0.17692722
131	0xbecd7f32	-0.40136105
132	0xbb124153	-0.0022316768
133	0x3c7640e1	0.015030117
134	0xbe914acb	-0.28377375
135	0xbeffe228	-0.4997723
136	0x3d021249	0.03175572
137	0xbedc6386	-0.4304468
138	0x3e658b3d	0.22416396
139	0x3de550ce	0.11197053
140	0x3e812709	0.25225094
141	0xbf1bb8c8	-0.6082883
142	0x3e14f13a	0.14545146
143	0x3dadc76f	0.084853046
144	0x3e6e2b5f	0.23258732
145	0xbeabe9d7	-0.33576843
146	0x3c4bc4ae	0.012437029
147	0x3e5f7ab3	0.2182415
148	0x3ef29ee3	0.47386846
149	0x3e248f48	0.16070282
150	0xba709e67	-0.0009178877
151	0x3e081828	0.13290465
152	0xbe62e4c8	-0.22157586
153	0xbe4107cd	-0.18850632
154	0xbd70a744	-0.058753267
155	0x3e710b0e	0.23539373
156	0x3c0858e5	0.008321975
157	0xbe731d2d	-0.23741598
158	0xbec81c5f	-0.39084145
159	0x3e1d8a04	0.1538468
160	0xbeb91216	-0.3614661
161	0x3e23232f	0.1593139
162	0x3dff86f0	0.12476909
163	0x3e3b9784	0.18319517
164	0xbdd14517	-0.10218256
165	0x3ecbfdbe	0.39842027
166	0x3ea2a67f	0.3176765
167	0xbce9d232	-0.028542612
168	0x3dc97817	0.098373584
169	0xbe585231	-0.21125104
170	0xbe863df7	-0.2621915
171	0x3e47e671	0.195215
172	0xbdfbefc7	-0.12301593
173	0x3e6563d2	0.2240136
174	0xbd39ee63	-0.04539336
175	0x3e36005b	0.17773573
176	0x3c75082d	0.014955563
177	0xbe22e271	-0.15906693
178	0xbe6c0471	-0.2304857
179	0xbe3e52ff	-0.18586348
180	0xbd8cddf9	-0.068782754
181	0xbe28a761	-0.164701
182	0x3ec3fc77	0.38278553
183	0xbe2c0675	-0.16799338
184	0x3dbcaac6	0.0921226
185	0xbe87dc63	-0.2653533
186	0x3d57516d	0.052567888
187	0xbeee25c2	-0.46513182
188	0x3ce1a140	0.02754271
189	0x3ea1faab	0.31636557
190	0xbe9a8dcc	-0.30186307
191	0xbf0d56d2	-0.552106
192	0x3d32935b	0.04359756
193	0xbddbfc57	-0.107414894
194	0x3ebad3cc	0.36489713
195	0xbe2bed04	-0.16789633
196	0x3d9bf287	0.07614618
197	0xbea585fe	-0.3232879
198	0xbf15123f	-0.58230966
199	0x3e90f39a	0.28310853
200	0xbd8b4c91	-0.06801713
201	0x3dd4b89e	0.103867754
202	0xbd767d39	-0.060178015
203	0x3dcc4b55	0.09975306
204	0x3d068bd8	0.03284821
205	0x3daa86f2	0.0832652
206	0xbcf131d8	-0.029442713
207	0xbec51155	-0.38489786
208	0xbeac1dab	-0.33616385
209	0x3e541b0b	0.20713441
210	0xbd0d026a	-0.03442613
211	0x3e41ed70	0.18938231
212	0x3ecf81de	0.40528768
213	0xbee62b4a	-0.44954902
214	0x3eafae8a	0.3431285
215	0xbebeea59	-0.37288168
216	0x3e9651a0	0.2935915
217	0xbea221db	-0.31666455
218	0xbeb5721d	-0.35438624
219	0x3e49e88f	0.1971762
220	0x3c321423	0.010869059
221	0xbdc4d084	-0.09610084
222	0xbe9cffd4	-0.3066393
223	0xbe97b38f	-0.2962918
224	0x3ec4c744	0.38433278
225	0xbf263688	-0.6492696
226	0x3e2136bf	0.1574354
227	0xbd308f2c	-0.04310529
228	0xbd010231	-0.03149623
229	0xbebc0901	-0.3672562
230	0xbe8eb56e	-0.27872795
231	0xbf17c86b	-0.5929019
232	0xbe3f6121	-0.18689395
233	0xbe8b504e	-0.27209705
234	0xbf050c5f	-0.51972
235	0xbe4de1ca	-0.20105663
236	0xbdc888e4	-0.09791735
237	0xbf34a9b1	-0.7057143
238	0xbeb062a1	-0.34450248
239	0xbea511b0	-0.32240057
240	0x3e8c4a0b	0.2740024
241	0xbea2fedd	-0.3183507
242	0xbd7e02a4	-0.062014237
243	0x3c76f2de	0.0150725525
244	0xbeea0840	-0.4570942
245	0x3e2b25d3	0.16713648
246	0x3ed6497b	0.41852936
247	0xbe651e0c	-0.22374743
248	0x3c9c9244	0.019112714
249	0x3e82f7fc	0.25579822
250	0x3ea5c4b5	0.32376638
251	0xbeb1fbdc	-0.34762466
252	0x3eac9fbe	0.33715624
253	0x3df66c4a	0.12032373
254	0x3c218426	0.009858167
255	0xbeee3039	-0.46521166

dense_2/MatMul_bias f4 [16]
0	0x3f108385	0.5645068
1	0x3ebcca1f	0.36872956
2	0x3ebf9153	0.3741556
3	0x3ec71626	0.38884085
4	0x3f190759	0.59776837
5	0x3f0e87d6	0.5567602
6	0xbd3945fd	-0.04523276
7	0xbe082515	-0.13295396
8	0xbe0b043c	-0.13575834
9	0xbe8be1a1	-0.2732058
10	0x3ec5648f	0.38553283
11	0xbe72de17	-0.23717533
12	0xbd0169d0	-0.03159505
13	0xbe2e2a95	-0.17008431
14	0x3f2a76f6	0.6658777
15	0xbeebd9a8	-0.46064496

dense_2/kernel/read/transpose f4 [16, 16]
0	0xbd421b25	-0.04738917
1	0xbe4f086f	-0.20218061
2	0x3cbc9961	0.023022356
3	0xbe4ec324	-0.20191628
4	0x3dcc44fe	0.09974097
5	0xbea5c06b	-0.32373366
6	0xbd974cae	-0.07387672
7	0x3ebfacaf	0.37436435
8	0xbecf9eb3	-0.40550765
9	0xbedd0bb9	-0.43173006
10	0x3ded188f	0.1157695
11	0xbd4f78c1	-0.05065227
12	0xbcf7f880	-0.030269861
13	0x3e6963c2	0.22791961
14	0xbece6f97	-0.4031951
15	0x3ef19cc0	0.47189903
16	0x3ecf8092	0.4052778
17	0x3edd0d11	0.4317403
18	0xbe8bbd4a	-0.27292854
19	0xbdeeebf7	-0.116661005
20	0x3ec1bc59	0.3783901
21	0x3d773500	0.06035328
22	0x3e64f370	0.22358489
23	0x3ddcf350	0.10788596
24	0x3e6c60bf	0.2308378
25	0x3e657c20	0.22410631
26	0x3ecc4238	0.3989427
27	0xbd55d5cc	-0.052205846
28	0x3e23cf8d	0.15997143
29	0xbe4d5781	-0.20052911
30	0xbca6d2bb	-0.020364156
31	0x3df8f57c	0.121561974
32	0x3e2a4fc3	0.16631989
33	0x3e913d66	0.28367156
34	0xbe5e30e0	-0.21698332
35	0x3d3ac62e	0.045599155
36	0xbe65cefe	-0.22442243
37	0x3e58486f	0.21121381
38	0x3a4e619c	0.00078728213
39	0x3eed50ca	0.463507
40	0x3e997e30	0.29979086
41	0x3e557dfa	0.20848837
42	0x39dc3e06	0.0004200788
43	0x3c84b28b	0.016198417
44	0x3dc6353b	0.09678122
45	0xbe57dfce	-0.21081468
46	0x3d0236ed	0.031790663
47	0x3e43a0fe	0.19104382
48	0xbd3274ff	-0.043568607
49	0xbcfda9c5	-0.030964741
50	0xbd64cea6	-0.055861138
51	0xbecd6792	-0.4011808
52	0x3ef91635	0.48649755
53	0x3df8581b	0.1212618
54	0xbe120012	-0.1425784
55	0x3d8ca344	0.06867078
56	0x3cfa3286	0.03054167
57	0x3ddcc683	0.107800506
58	0x3e97e50d	0.2966694
59	0x3e8d4970	0.2759509
60	0x3ec4696a	0.38361675
61	0xbe8e6e5d	-0.27818576
62	0xbd83e228	-0.0643962
63	0x3eb2df25	0.3493587
64	0xbebf59f8	-0.37373328
65	0xbeb7d1ae	-0.3590216
66	0x3d106111	0.03524882
67	0xbecca2d1	-0.3996797
68	0x3daa38b7	0.08311599
69	0x3e2fde27	0.17174588
70	0xbe16fff1	-0.14746071
71	0x3f609ac2	0.8773614
72	0x3e71e1c9	0.23621286
73	0x3efd1d5e	0.49436468
74	0x3e975b56	0.2956187
75	0xbd88d1f9	-0.06680674
76	0x3e59e8da	0.21280232
77	0x3ed52c06	0.4163515
78	0x3cb6a8c7	0.022297276
79	0x3dbaf05c	0.09127876
80	0x3e0b751d	0.13618894
81	0xbecf4250	-0.4048028
82	0xbeb76cad	-0.358251
83	0xbeae0639	-0.33989123
84	0x3e3bb04e	0.18328974
85	0x3d5c0fd9	0.05372605
86	0xbccf4c27	-0.025304867
87	0x3ea38da3	0.31943998
88	0xbed0a411	-0.40750173
89	0x3d46cc98	0.04853496
90	0x3e1dd557	0.15413414
91	0xbe97b5b7	-0.29630825
92	0x3ea325c2	0.31864744
93	0x3cc6e3c6	0.024278533
94	0xbe001e36	-0.12511525
95	0xbdc375ba	-0.09543939
96	0xbe2c334a	-0.1681644
97	0xbdc9d3e0	-0.09854865
98	0x3deb1d8f	0.11480247
99	0xbee3768c	-0.44426382
100	0x3e084ea0	0.13311243
101	0xbf0328ec	-0.51234317
102	0x3a4c7613	0.0007799577
103	0xbdbafcf2	-0.09130277
104	0xbf0598be	-0.5218619
105	0x3e9ee033	0.31030425
106	0xbdf6840d	-0.120369054
107	0xbed293e7	-0.41128466
108	0xbe1208e9	-0.14261211
109	0x3db62524	0.08893803
110	0xbd79c476	-0.060978375
111	0xbec21cfc	-0.37912738
112	0xbebb8aa5	-0.36629215
113	0xbca5308a	-0.020164747
114	0x3e98bc44	0.29831135
115	0xbd69afd8	-0.057052463
116	0x3e217b03	0.15769581
117	0xbe36decc	-0.17858428
118	0x3e5cddd8	0.21569002
119	0x3cb507c2	0.022098426
120	0xbf018e9e	-0.5060824
121	0xbd72f7bc	-0.05931829
122	0xbe6aebb7	-0.2294148
123	0x3ec44e90	0.38341188
124	0xbef54294	-0.47902358
125	0xbdd566f0	-0.104200244
126	0xbd101d22	-0.035184033
127	0xbdf86f10	-0.121305585
128	0xbec8bdf4	-0.39207423
129	0xbc05f48b	-0.008175979
130	0x3e400e48	0.18755448
131	0xbea86f45	-0.32897392
132	0x3e9f9355	0.31167093
133	0x3e940018	0.28906322
134	0xbdf6e42d	-0.1205524
135	0x3d4a6f5b	0.049422603
136	0xbe5b918b	-0.21442239
137	0xbd9c0e7b	-0.076199494
138	0x3d19fd15	0.037594873
139	0x3e0047c7	0.12527381
140	0xbceeeb08	-0.029164806
141	0xbd6768da	-0.05649648
142	0xbea30c33	-0.31845245
143	0xbea855ad	-0.32877865
144	0xbb3c5cd6	-0.0028741858
145	0xbe54eae0	-0.20792723
146	0xbf1a160d	-0.60189897
147	0x3e7270ce	0.23675844
148	0xbe0978e5	-0.13425024
149	0xbeb7a42c	-0.3586744
150	0x3f066598	0.5249877
151	0xbdb2ba16	-0.08726899
152	0xbed75cf5	-0.42063108
153	0xbe7384c5	-0.23781116
154	0x3edbb789	0.42913464
155	0x3d2287ab	0.039680164
156	0xbda85778	-0.08219808
157	0x3e4a8b19	0.19779624
158	0x3e3282bd	0.17432685
159	0x3d824e1c	0.063625544
160	0x3ddc124f	0.107456796
161	0x3e9353f0	0.28774977
162	0x3df1c394	0.11804882
163	0x3f179648	0.59213686
164	0xbe40bea8	-0.1882273
165	0xbead7583	-0.33878717
166	0xbe51a50e	-0.2047312
167	0x3ec253fa	0.37954694
168	0x3e34e15a	0.1766409
169	0x3ea0fa08	0.3144076
170	0xbe96559c	-0.2936219
171	0x3e329979	0.17441358
172	0xbdc0a95c	-0.09407303
173	0x3ddecbe5	0.108787335
174	0x3dfb8595	0.12281338
175	0x3e3d7e8a	0.18505302
176	0x3d87195c	0.06596634
177	0xbe0e8135	-0.13916476
178	0x3e607557	0.21919762
179	0xbc2811ef	-0.010258182
180	0xbf23671a	-0.63829195
181	0xbe8ffe9b	-0.28123936
182	0x3ea81570	0.32828856
183	0xbef2646f	-0.4734225
184	0xbeed8a41	-0.46394542
185	0x3dc2de68	0.09515077
186	0x3cf6b799	0.030116843
187	0xbeadad07	-0.33921072
188	0x3d057adf	0.032587882
189	0x3d99aae7	0.075033
190	0x3e14229c	0.14466327
191	0x3b55d6bf	0.003262922
192	0xbe31da8f	-0.1736853
193	0xbea44118	-0.32080913
194	0x3d34ca38	0.044138163
195	0xbec6451b	-0.38724598
196	0xbdbea0c8	-0.0930801
197	0x3e5c2418	0.21498144
198	0xbf0c4afa	-0.54801905
199	0x3d3cc725	0.046088357
200	0xbd846fbc	-0.06466624
201	0x3d5a3d19	0.053280924
202	0xbce5b533	-0.028040504
203	0xbefa1838	-0.48846602
204	0xbebd0c12	-0.3692327
205	0xbe025e52	-0.12731293
206	0xbedf7e80	-0.436512
207	0x3d5abed5	0.053404648
208	0xbf13d32f	-0.57744116
209	0xbe653b98	-0.22386014
210	0xbedabf51	-0.42724088
211	0xbe5cb6c1	-0.2155409
212	0x3e5fbd58	0.21849573
213	0xbce8fa20	-0.028439581
214	0x3da80b4e	0.08205281
215	0xbe175ffb	-0.14782707
216	0x3e89a70c	0.2688526
217	0xbe1c9792	-0.15292194
218	0xbec15ccb	-0.37766108
219	0x3e505271	0.20343949
220	0x3ed6d21e	0.41957182
221	0x3ebda819	0.3704231
222	0xbf032cda	-0.51240313
223	0xbdc2f2a5	-0.09518937
224	0x3dc1431a	0.09436627
225	0xbeb6a441	-0.3567219
226	0x3cbd80b4	0.02313266
227	0xbe9e471e	-0.30913633
228	0xbc6278d6	-0.013822755
229	0xbe158bee	-0.1460416
230	0xbeecfd56	-0.4628703
231	0x3e8e97dd	0.27850237
232	0x3ed333c5	0.41250435
233	0xbde94954	-0.11390939
234	0x3e8807c1	0.26568416
235	0xbe4f7a60	-0.20261526
236	0x3e924b72	0.28573185
237	0xbf0f182c	-0.5589626
238	0xbdd2c657	-0.102917366
239	0x3c98e0f9	0.018661963
240	0x3de69763	0.112593435
241	0xbea6d451	-0.3258386
242	0xbebee80a	-0.37286407
243	0x3cf34a8a	0.029698629
244	0x3e1d1f82	0.1534405
245	0x3ddaebac	0.10689482
246	0x3f4b3cc4	0.79389596
247	0x3e7ca24a	0.24671283
248	0xbe8b8bf5	-0.27255216
249	0x3e724da0	0.23662424
250	0xbe7d47b6	-0.24734387
251	0x3d547a55	0.051874477
252	0xbe609e34	-0.2193535
253	0xbf00ed4d	-0.5036209
254	0x3d460d86	0.04835274
255	0x3e87ae68	0.2650025

output_pvr/kernel/read/transpose f4 [1, 16]
0	0xbe2366a0	-0.15957117
1	0xbe85fdd2	-0.26170212
2	0xbeeb787d	-0.45990363
3	0xbe80ce13	-0.25157222
4	0xbf1fe8c9	-0.62464577
5	0xbec147ba	-0.37750036
6	0x3e8d7db6	0.27634972
7	0x3655a26f	3.1834022e-06
8	0x3a91ff29	0.0011138666
9	0x3e414679	0.1887454
10	0xbec90fa4	-0.39269745
11	0x3c5d3ccd	0.013503266
12	0x3f2ed683	0.6829607
13	0x3eeb2120	0.4592371
14	0xbebded07	-0.370949
15	0x3f1a0956	0.60170496
