test/padding_conv3d.onnx (onnx, 904 bytes, 2 tensors)

bias f4 [6]
00000000: 70e5 8dbd b2f0 2fbe 70ee 1ebd caf7 a0bd
00000010: a614 163e 60cd 3f3c
-0.06928527 -0.17181662 -0.03880161 -0.07859762 0.14656314 0.01170668

weight f4 [6, 3, 2, 2, 2]
00000000: 5e71 8ebd 24d0 da3d fcb6 963d d8cf 1dbd
00000010: c8c5 f7bd 9428 c13d 00f2 953a d8f8 febd
00000020: d22f 29be c85d 8b3c 686c 563d 6416 3abd
00000030: 401f a03b 3482 2abe b4d2 b63d 248f 88bd
00000040: b82e 793d 8c3b de3d 2a94 19be 3cc6 f93d
00000050: 4037 783d 80f2 42bd e0d2 bdbb cc83 323e
00000060: cc03 383e 88c0 5c3d 2e3f 413e 7640 083e
00000070: c02a 363e a0cf f2bc 8070 08bd 14c0 893d
00000080: 2435 ee3d 18e6 00bd d8a5 1d3e 923e 09be
00000090: 6552 b4bd 8251 0bbe 379d 4bbe 6f9c 2abe
000000a0: 24e9 36bd 19ad 22be 4830 18bd c043 09bc
000000b0: 58dc 963d 10a1 c93d 5094 083e 34f3 2abd
000000c0: 2083 563d 9caf 23be 8e2a 0f3e 00b3 cfba
000000d0: 2f0a 11be 64dd 4bbd e44b b73d 90a9 17bd
000000e0: 0ce8 093e 32a9 193e d25e debd dc86 08be
000000f0: 5452 12be 5832 80bd e8d0 523d d32f 1dbe
00000100: 3cf3 923d 5c32 193e 0050 c739 6c33 fe3d
00000110: b072 55bc 68f7 07be d8be e43d 5c81 a83d
00000120: 5884 4b3e 90b1 113c f028 e5bc e0da ba3d
00000130: cec4 353e b0a3 2abd fd40 1dbe 4704 28be
00000140: a0fa 3a3e d099 c93d 90d0 48bc 80f6 cf3c
00000150: e523 42be 9096 98bd 4812 a9bc c011 593c
00000160: 4ca4 203e 200b 4e3d f036 b03c 18de 4fbe
00000170: 424c 4d3e fe8c 4bbe 121d 9cbd 80ad b1bc
00000180: c440 e63d 493a 12be 52c0 243e a0bf 413d
00000190: bc3f 313e 6963 b1bd c068 acbb dad1 333e
000001a0: cc13 443e 8606 483e 60b6 923b 0799 dbbd
000001b0: e0bc 783d b526 bfbd 2465 8abd 0e89 3bbe
000001c0: 1fef cdbd 523b a6bd 7556 f3bd d98f c7bd
000001d0: 704b 6a3c e420 153e 5016 69bc 1896 f5bc
000001e0: 18ee 173e 80c7 8cbd a04d e7bc 446c b43d
000001f0: 28ed 913c bcaa 463e 3a5b 123e 496c aebd
00000200: 1edd 333e 544d 323e 2ef1 e1bd 7de3 c2bd
00000210: f02b 113e 5e0d 4b3e 2479 963d 281c c7bc
00000220: 58f3 7b3d c24c 08be f077 973d 2660 99bd
00000230: a09a e73d f05f 223e 48af 4abd a027 063e
-0.06955217 0.10684231 0.0735912 -0.038528293 -0.12098271 0.09431568 0.001143992 -0.12449807
-0.16522148 0.017012492 0.052349478 -0.04543151 0.004886538 -0.16651231 0.08926907 -0.06667927
0.06083557 0.108512014 -0.14997926 0.12196013 0.060599566 -0.047594547 -0.0057929605 0.17433089
0.17970198 0.05389455 0.18871757 0.1330584 0.17789745 -0.029640019 -0.033310413 0.06726089
0.116312295 -0.031469434 0.15395296 -0.13402775 -0.08804778 -0.13605312 -0.19884191 -0.16661237
-0.044655934 -0.15886344 -0.03715542 -0.008377969 0.07366246 0.09845173 0.13337827 -0.041735843
0.052371144 -0.15984958 0.13981077 -0.0015846193 -0.14164041 -0.04977168 0.08950022 -0.03702694
0.13467425 0.15005949 -0.10857929 -0.13332695 -0.14289218 -0.06259602 0.05146876 -0.15350275
0.071752995 0.14960617 0.00038015842 0.12412152 -0.013027832 -0.13277972 0.11169213 0.08227798
0.19874704 0.008892432 -0.027973622 0.09123778 0.17750856 -0.04166001 -0.15356822 -0.16407882
0.18259668 0.098437905 -0.012256756 0.025386095 -0.18959005 -0.074505925 -0.0206386 0.013248861
0.15687674 0.05030358 0.021510571 -0.20299566 0.20048621 -0.19878003 -0.07622732 -0.021689177
0.11242822 -0.14280047 0.1608899 0.04730189 0.17309469 -0.08661539 -0.0052615106 0.17560521
0.19148177 0.19533738 0.004477307 -0.10722547 0.060727 -0.09333555 -0.06757572 -0.18314001
-0.10055374 -0.08116783 -0.11881725 -0.09744234 0.014300212 0.14563328 -0.014226511 -0.029978797
0.1483692 -0.06873989 -0.028235257 0.088097125 0.01781328 0.19401067 0.14292613 -0.085167475
0.17564818 0.17412311 -0.110323295 -0.09516046 0.14176917 0.19829318 0.073473245 -0.024305418
0.061511368 -0.13310531 0.07395923 -0.07489042 0.11308789 0.1585691 -0.049483567 0.13101053
