test/single_layer_conv3d_test.onnx (onnx, 111049 bytes, 2 tensors)

bias f4 [32]
00000000: 30fd 8dbc 1eb9 c33c 2ef5 b73c c08a 41bc
00000010: 3881 7f3c de03 0a3d ac54 4dbc bc85 15bc
00000020: a6ee e63c 4ad2 dbbc 8b7d f1bc dcf6 0a3d
00000030: 6024 f13a e859 f93c 10b0 10bc 4645 abbc
00000040: 42f1 053d d8a4 efbc b828 ef3b ee0e 6ebc
00000050: a051 00bb a68c 9ebc 0e27 df3c b99f f8bc
00000060: 3e90 de3c c0a7 dc3c 401f ff3c 00d2 03ba
00000070: 06bc ca3c 339c 03bd 183d ff3c e085 4dbb
-0.017332643 0.023891982 0.022455778 -0.011812866 0.015594773 0.033695094 -0.012532394 -0.009126123
0.028189968 -0.026833672 -0.029478809 0.03392683 0.0018397681 0.030438378 -0.008831039 -0.020907056
0.032700785 -0.029253408 0.007298555 -0.014529927 -0.0019579902 -0.019354176 0.027240302 -0.0303496
0.02716839 0.026935458 0.03114283 -0.0005028546 0.02474786 -0.032131385 0.031157061 -0.0031360313

weight f4 [32, 32, 3, 3, 3]
00000000: 34e4 cebb 42f8 03bd a633 1cbc ad96 babc
00000010: 74f6 8b3c c08d fc3a 3a2e f0bc ed00 d5bc
00000020: 60ed 8d3c 20c4 493b 4a59 63bc 7ce5 ff3c
00000030: 2877 99bc 0037 b4bc 3836 cabb ce0b 8c3c
00000040: f4b6 e73c de92 8e3c fe6d a33c a61b 983c
00000050: 9007 f03b 7cde febc 1803 473c e46e 9e3c
00000060: 072c b2bc bc2f 8c3c 480a 95bb f827 a9bc
00000070: 349e 3dbc 26cd dcbc b079 6e3c df67 d9bc
00000080: eff2 89bc 314e e3bc f244 e7bc 30de 01bd
00000090: 004d e63c a016 7dbb 8232 37bc d070 cabb
000000a0: 14da 0e3c f263 d1bc 609b 763c f730 88bc
000000b0: 0ca5 76bc 607e 60bc 1f08 00bd d6a6 5fbc
000000c0: c051 ca3a c14e d6bc 0658 cdbc b065 0dbb
000000d0: c2d0 043d 5014 ffbc 8016 35bc 346c 193c
000000e0: d162 91bc 343e 08bc a921 06bd 7e62 db3c
000000f0: 4c0b 9d3c 64b7 d8bc 0801 153c a0d6 ffbb
00000100: 6c7f 003d 658d 96bc 1067 5b3b c894 d63c
00000110: 58aa a93c 0000 f835 44de e3bb 8040 db39
00000120: 9e4b 25bc 0ce5 a03c 9833 99bb 7043 303c
00000130: b07c 353b eef3 27bc 2a39 063d aca4 f33c
00000140: c04c 9c3c 8ed7 44bc ca2c 823c 2777 e9bc
00000150: 8ca6 35bc c8e9 f53c f488 fd3c 9889 453c
00000160: d284 c83c 0e49 1abc 2a7f 093d dc3d 3b3c
00000170: ee63 1abc 9c7d ab3c 6c8f f3bc 7892 1abc
00000180: 8cc6 3f3c e2fe edbc 9a9f 65bc c20b be3c
00000190: 0066 5aba a03d 2dbb 8826 c3bb 3e1c cdbc
000001a0: 0c08 e4bc 50e0 493c 092d a7bc 9048 d23c
000001b0: e8a0 373c d260 c0bc 76aa 063d a0ce aebc
000001c0: c17e 86bc 54cf 0d3c bc69 b63c 40d9 793c
000001d0: f8bf 31bc a4e7 2d3c d417 d2bb 20bc d13a
000001e0: aaa8 d83c 00c8 573a 2098 ba3b a00a e4bb
000001f0: 36db 7dbc a061 cc3c c06c fc3c dcc9 ac3c
00000200: 9ba7 e6bc d0a9 b73b 580f debc d688 34bc
00000210: d6b1 41bc e8a1 9b3b 421e e03c c0db d03b
00000220: 500b 3b3b e0e0 513c ace0 b9bc 602a b9ba
00000230: f51a b2bc 8625 d9bc fcb4 c9bb 211c f8bc
00000240: 508e 193b 429f b43c 804f 003d 4071 e13a
00000250: ec6a 9a3c f872 543c 30fb 8a3b 56ef b33c
00000260: 96c1 c83c 6c08 753c f0fb 4abc 160e 063d
00000270: 2839 a9bc 6cc3 c13c 585f 51bb ac6a 983c
00000280: 74b6 833c e044 d73a f074 8cbc 08eb e4bc
00000290: 687f 8d3b 3643 09bc b897 aabc 18c1 f03c
000002a0: 7885 263c 5e60 07bc 6524 00bd c435 ddbc
000002b0: dee9 eabc 1631 c5bc 704b 9d3b 80fb 48bc
000002c0: 68c7 d63c aeb4 71bc 0cc6 703c ea9d a73c
000002d0: 5444 953c c025 fc3a f060 3a3b 5a38 983c
000002e0: 50bc 893c 3e5d 083d c036 a6bc 78a2 bebc
000002f0: bf4a ecbc 7245 da3c 7446 eb3c 10b8 0ebb
00000300: 48a2 f33b 40ad 77bb 20d6 d9bc d3a2 c8bc
00000310: 12e2 893c d2a8 05bc 9eef b73c 9875 ef3c
00000320: c027 44ba 1ee7 cf3c b7bf 8cbc 848d 073d
00000330: 0cd9 c2bc 26ad 77bc 5cc2 7f3c d8d2 bdbc
00000340: 1406 aabb 4b53 8bbc 3f17 cbbc 48eb 7e3c
00000350: e0c4 7f3b e061 5d3c 1c68 913c e297 1dbc
00000360: a2b2 f6bc bc72 193c 00ae 1c3a fe66 20bc
00000370: 24d4 88bb 3ae8 e03c 10af bf3c 1af2 943c
00000380: 3c75 f13c c07c 6aba 0c10 ed3c 2877 843b
00000390: 4cd1 ffbc aee7 c23c 20ba 18bb 448d debb
000003a0: fab8 72bc de49 d53c 2e4e a33c 8085 0aba
000003b0: 846c fe3c 80fe 1d3a 5ed7 8b3c 003b b4bb
000003c0: d3b7 bcbc 80df 6c3a d0c9 803c a84a 423c
000003d0: 12f1 02bd 52cc 89bc 80b4 aabc 0054 7a38
000003e0: d683 0a3d 9a96 aa3c 7080 e43c 64b8 3f3c
000003f0: 8249 063d f66f 5fbc fe48 dc3c 6daf e5bc
-0.006313825 -0.03221918 -0.009533798 -0.022776926 0.017085291 0.0019268319 -0.029318918 -0.026001418
0.017325103 0.0030787066 -0.013876269 0.031237356 -0.018733576 -0.021998882 -0.006171014 0.017095473
0.028285481 0.017404016 0.01994991 0.018567871 0.0073251203 -0.031111948 0.012146734 0.019339986
-0.02174951 0.017112605 -0.0045483448 -0.020648941 -0.011573363 -0.026953291 0.01455538 -0.026538787
-0.016839473 -0.027747246 -0.028231118 -0.031706035 0.028112888 -0.0038618222 -0.011181476 -0.006177999
0.008718986 -0.025560353 0.015051693 -0.01662491 -0.015053999 -0.013702005 -0.031257745 -0.013650617
0.001543574 -0.0261606 -0.025066387 -0.0021575503 0.03242565 -0.031137615 -0.011052728 0.009364177
-0.017747315 -0.008315612 -0.032746945 0.026780363 0.019170426 -0.026454635 0.009094484 -0.0078075677
0.03137152 -0.018377969 0.0033478178 0.026193991 0.020711109 1.847744e-06 -0.0069539864 0.0004181899
-0.010088829 0.019640468 -0.00467534 0.010758266 0.0027692728 -0.010251028 0.03276936 0.029741608
0.019079566 -0.012014283 0.015890498 -0.0284992 -0.011087071 0.030018702 0.030949093 0.012056731
0.024477396 -0.009416832 0.03356854 0.011428323 -0.009423239 0.020933919 -0.029731475 -0.009434335
0.011705052 -0.029052202 -0.014015103 0.023198966 -0.0008331239 -0.0026434436 -0.005955521 -0.025037881
-0.027835868 0.012321547 -0.020407217 0.025669366 0.011207797 -0.023483668 0.032877408 -0.02133876
-0.016417863 0.008655388 0.022267215 0.01524955 -0.010848992 0.010614309 -0.006411532 0.00160015
0.026447613 0.00082314014 0.0056944042 -0.0069592744 -0.0154941585 0.024948895 0.030813575 0.021092348
-0.028156092 0.00560496 -0.027106926 -0.011018952 -0.011822185 0.0047495253 0.027358178 0.0063738525
0.0028540678 0.012809962 -0.02269014 -0.0014127009 -0.02174137 -0.02650715 -0.006155608 -0.03028685
0.0023430772 0.022048596 0.031325817 0.0017199889 0.018849812 0.012966864 0.0042413697 0.02196471
0.024506371 0.014955621 -0.012389168 0.032728277 -0.020657137 0.023652755 -0.0031947698 0.018605553
0.016078211 0.0016423725 -0.017145604 -0.027944103 0.0043181665 -0.008377841 -0.020824298 0.02938895
0.010163657 -0.008262722 -0.03128471 -0.027003177 -0.02867597 -0.024071258 0.0048002526 -0.0122669935
0.026218131 -0.01475255 0.014695656 0.020461041 0.018221058 0.0019237325 0.0028439127 0.018581558
0.016813427 0.033292048 -0.020289779 -0.02327083 -0.028844235 0.026644442 0.028720118 -0.002177719
0.007435117 -0.0037792474 -0.02659136 -0.024491703 0.016831432 -0.008157926 0.022453126 0.029230878
-0.000748273 0.02537876 -0.01718126 0.033093944 -0.023785137 -0.015116965 0.015610304 -0.023171827
-0.005188713 -0.01700749 -0.024791358 0.015559025 0.0039027259 0.013512105 0.017749839 -0.009618731
-0.030114476 0.009365734 0.0005976856 -0.00979018 -0.0041756798 0.027454484 0.023398906 0.01818185
0.029474847 -0.0008944981 0.028938316 0.004042525 -0.03122773 0.023792114 -0.0023304299 -0.0067917425
-0.01481461 0.0260362 0.01993474 -0.0005284175 0.031057604 0.0006026998 0.017070469 -0.0055001974
-0.023036873 0.00090359896 0.015721232 0.01185862 -0.031968184 -0.01682106 -0.020838022 5.9682876e-05
0.033817135 0.020823766 0.027893275 0.011701677 0.032784946 -0.013637533 0.026890274 -0.028037751
