test/test_2dconv.onnx (onnx, 1400 bytes, 6 tensors)

conv_2d.0.bias f4 [6]
000000 58 49 b5 3c cc 65 5f 3d 8c 25 4f bd fb 7b 30 3e
       0.0221297 0.05454044 -0.050572917 0.17234795
000010 4e 9f ae 3d 7e d6 3a be
       0.08526479 -0.18245885

conv_2d.0.weight f4 [6, 3, 3, 3]
000000 10 e8 2d 3c c8 7f b2 3c 1b cd 1d 3e e4 2b 1e 3d
       0.01061441 0.021789446 0.15410273 0.038616076
000010 9c 08 29 be 18 f6 aa 3c 7f 57 25 3e dc d2 83 bd
       -0.1650719 0.0208693 0.16146658 -0.064367026
000020 18 98 a2 bd 34 bb 01 3d 2f 70 2a be bf 6e 3b be
       -0.07939166 0.03167267 -0.16644357 -0.18303965
000030 d3 33 ab bd ba a8 bb 3d 11 7a 14 be dd 8c 07 3e
       -0.08359494 0.091630414 -0.1449969 0.13237329
000040 30 5c 78 bc b3 ee 28 3e b2 a7 ab 3d e8 b5 12 3d
       -0.015158698 0.16497307 0.08381595 0.03581801
000050 6b b5 8d bd 9c 65 6a 3d 42 44 b8 3d e4 2d 26 be
       -0.06919368 0.05722581 0.08997394 -0.16228443
000060 38 8a 55 bd c6 06 b0 3d b5 3a 09 be 14 d5 b6 bd
       -0.05213377 0.08595042 -0.13401301 -0.0892736
000070 11 07 23 3e 39 aa 23 3e 5c 7c 10 3d c0 da 1c 3b
       0.15920664 0.15982904 0.03527485 0.0023934096
000080 c8 7c d1 3c ac 62 51 bd 18 dc 16 bd 0a 93 bb 3d
       0.025572196 -0.05111949 -0.03683099 0.09158905
000090 00 f9 40 ba 31 86 2a 3e e1 8b 3f be 40 a5 1d bc
       -0.00073613226 0.16652752 -0.18705703 -0.009621918
0000a0 be 65 af 3d f1 1e 09 3e 74 a9 22 3d 7d 37 34 be
       0.08564328 0.1339071 0.039712384 -0.17599292
0000b0 ab 49 31 be 2b 8c 1e be 24 35 c8 bd 4e 8d d4 3d
       -0.17313258 -0.15483157 -0.09775761 0.10378514
0000c0 08 12 da 3c 9f b8 20 3e 22 a0 0c be fd ae 44 3e
       0.026619926 0.15695427 -0.13732961 0.19207378
0000d0 f3 ad 05 3e 37 c7 14 be 90 3a 43 3d 1b 77 16 3e
       0.13054638 -0.1452912 0.04766327 0.14693873
0000e0 6e 50 bc 3d ca 87 dc bd 60 55 1d bd 35 52 10 3e
       0.09195028 -0.10768087 -0.038411498 0.1409386
0000f0 2e 8c fd 3d 58 8d 18 3d 80 cd 42 3c eb 96 34 3e
       0.12380253 0.03724417 0.011889815 0.17635696
000100 dc 7c 61 3d d0 87 f7 bc 52 22 1d be 26 5a 02 be
       0.055050716 -0.030216128 -0.15345123 -0.12729701
000110 e8 1d 45 3d c0 fa 40 be 7c 2a 31 be 60 cb 25 bd
       0.048124224 -0.18845654 -0.17301363 -0.040477157
000120 f4 dc 9b bd 80 43 30 3b 10 fd a9 3c 40 29 e5 bc
       -0.07610503 0.0026895702 0.020750552 -0.027973771
000130 65 ce 37 be b2 ec e7 bd 80 b5 af 3a 30 3f 04 3d
       -0.17949827 -0.11324443 0.0013405532 0.032286823
000140 50 c7 9b bc 42 06 ff 3d 8e 91 f1 3d 82 e1 b6 3d
       -0.019015938 0.124523655 0.117953405 0.08929731
000150 e8 ae a1 bc 5b c4 2c be b5 ec 8c bd 29 d4 31 be
       -0.019736722 -0.16871779 -0.06881086 -0.17366089
000160 f2 2f 8f 3d 3c b6 3a 3d 38 22 d8 bc d9 0a 15 3e
       0.06991567 0.04558395 -0.026383504 0.1455492
000170 8c 45 89 bd 66 e7 c7 3d 1b 44 41 be 12 df 98 3d
       -0.06702718 0.097609326 -0.18873636 0.07464422
000180 f2 f2 c1 bd 18 60 5d 3d 2d 1f da bd b8 9f a0 bc
       -0.09470166 0.05404672 -0.106504776 -0.01960741
000190 9a c9 e1 bd 7b 63 ff bd f1 60 c0 bd e0 36 2b bd
       -0.110247806 -0.12470146 -0.0939349 -0.04180038
0001a0 20 d9 de bd a2 6d 9c 3d e1 7b 41 be b0 8f 17 bd
       -0.10881257 0.07638098 -0.18894912 -0.037002265
0001b0 6b 40 0b 3e 80 b1 22 3c 80 af 82 3b 4b 6b 24 3e
       0.13598792 0.009930015 0.0039882064 0.16056554
0001c0 06 f4 c2 bd 6d 46 ec bd 43 4c 2e 3e 00 83 b2 bb
       -0.095192 -0.1153687 0.17021279 -0.0054477453
0001d0 0f 71 15 be 60 f7 ca bb b8 1c 6f bd 5e 80 09 be
       -0.1459391 -0.00619404 -0.058376998 -0.13427874
0001e0 08 04 e9 bc f2 7b 92 bd be 9b e4 3d bf c2 9b bd
       -0.028444305 -0.07152547 0.11162518 -0.07605504
0001f0 71 f4 db bd 56 2a 09 be 34 bc 67 3d d8 be 38 be
       -0.10739983 -0.13395056 0.05657597 -0.18041551
000200 10 fd 2e bc ba f3 1d be 7b 61 21 3e 18 10 07 be
       -0.010680452 -0.15425006 0.15759842 -0.13189733
000210 80 c2 fa ba 40 32 c4 3b 78 71 d4 bd be e5 f9 bd
       -0.0019131452 0.0059874356 -0.10373205 -0.12202023
000220 00 2c c8 ba b6 7c f8 3d 70 b5 6a 3c cc cd 7f 3d
       -0.0015271902 0.12133162 0.014325485 0.062452123
000230 80 de b1 3b 30 62 06 bc b6 85 f2 3d 94 33 5d bd
       0.0054281354 -0.008202121 0.118419096 -0.054004267
000240 a4 a8 18 3d a4 02 26 be 12 76 a5 3d 4b a0 28 be
       0.037270203 -0.16211945 0.08079161 -0.16467397
000250 da 86 b2 3d 58 68 d1 bd f7 ac b6 bd bf 19 cb bd
       0.08717127 -0.1022498 -0.08919709 -0.0991702
000260 66 cc 06 be 2f 5a cb bd e8 b4 65 bd 91 be 15 be
       -0.1316391 -0.099293105 -0.05608073 -0.14623477
000270 88 49 6b bd a4 27 1a be f5 92 12 3e e4 0c 79 3d
       -0.05744317 -0.15054184 0.14313872 0.06080331
000280 a0 4f 83 bb 65 8c 11 3e
       -0.004007295 0.14213713

conv_2d.1.bias f4 [6]
000000 00 00 00 00 00 00 00 00 00 00 00 00 00 00 00 00
       0.0 0.0 0.0 0.0
000010 00 00 00 00 00 00 00 00
       0.0 0.0

conv_2d.1.running_mean f4 [6]
000000 00 00 00 00 00 00 00 00 00 00 00 00 00 00 00 00
       0.0 0.0 0.0 0.0
000010 00 00 00 00 00 00 00 00
       0.0 0.0

conv_2d.1.running_var f4 [6]
000000 00 00 80 3f 00 00 80 3f 00 00 80 3f 00 00 80 3f
       1.0 1.0 1.0 1.0
000010 00 00 80 3f 00 00 80 3f
       1.0 1.0

conv_2d.1.weight f4 [6]
000000 00 00 80 3f 00 00 80 3f 00 00 80 3f 00 00 80 3f
       1.0 1.0 1.0 1.0
000010 00 00 80 3f 00 00 80 3f
       1.0 1.0
