test/test_case_3dconv.onnx (onnx, 252296 bytes, 25 tensors)

conv_2d.0.bias f4 [16]
000000 e2 de 3a 3d f0 3a 43 3d 30 af 9b 3b 2c 9f 10 3d
       0.045622714 0.04766363 0.0047511086 0.035308048
000010 66 b0 84 bd b6 4f 0c 3d 04 f2 b7 3c 34 bb 32 3d
       -0.06478958 0.034255706 0.02245427 0.043635562
000020 04 12 b7 3c 27 1c 58 bd 20 e3 8a bd 80 16 09 ba
       0.022347458 -0.052761223 -0.06781602 -0.0005229488
000030 c8 1b 6d 3d e8 29 db bc dc 3c 3d bd 50 40 d9 bc
       0.057887822 -0.02675338 -0.04620062 -0.026519924

conv_2d.0.weight f4 [16, 24, 3, 3]
000000 d0 82 2c bc 04 a2 be bc 00 80 2e 3c ec bf d3 3c
       -0.010529235 -0.023270614 0.010650635 0.025848351
000010 40 c7 77 3d 80 39 83 3d e4 0e ab 3c c0 bd a5 3b
       0.060492754 0.06407452 0.020881124 0.0050580204
000020 d0 65 86 3d c4 29 38 bc 08 cf 93 3c c0 61 ea bb
       0.06562388 -0.011240426 0.018043056 -0.007152766
000030 c0 f1 8e 3b fc dc 62 3d 24 8c 64 3d dc 6a 45 bd
       0.004362315 0.05538653 0.05579771 -0.048197612
000040 db 16 63 bd 90 b7 1c 3d 04 c2 a2 3c ca 52 4d 3d
       -0.05544172 0.038260996 0.019867904 0.050127782
000050 18 85 50 3c 00 26 47 3b af a9 81 bd 3c 1f 5f 3d
       0.0127270445 0.003038764 -0.06331193 0.054473147
000060 44 8c 61 bd 88 c9 3b 3d 13 26 41 bd e4 54 76 3d
       -0.05506541 0.045846492 -0.04715545 0.06013955
000070 b2 4b 54 3d 00 76 3d 3d 88 4d 3b bd 00 f1 84 3d
       0.05183 0.04625511 -0.045728236 0.064912796
000080 d8 c5 0c bc 6c 24 18 3d b4 b8 65 bd f0 0b 88 bd
       -0.0085920915 0.03714411 -0.05608435 -0.06642902
000090 aa 41 81 3d 30 29 5b 3c 61 01 0e bd b0 0a ec 3b
       0.063113526 0.013376519 -0.034669284 0.0072034225
0000a0 04 4e a8 3c 18 35 77 bc 92 22 86 3d 0e 2c 68 3d
       0.020545013 -0.015088342 0.065495625 0.05668264
0000b0 35 65 6c bd 50 3f a4 bc 24 21 99 3c a0 c6 3d bb
       -0.057713706 -0.020049721 0.01869256 -0.00289575
0000c0 b0 b2 08 3d d9 00 6e bd 8a 43 7a bd 90 c9 8e bb
       0.033373535 -0.058106277 -0.061099567 -0.004357524
0000d0 48 95 0a 3d 38 6d 91 3c 84 db 2a 3d 3a e2 85 bd
       0.033833772 0.017752275 0.041713253 -0.0653729
0000e0 30 0b e8 3c 80 77 2e ba 80 7c 40 bd e0 c9 82 3d
       0.028325647 -0.000665538 -0.046993732 0.06386161
0000f0 80 9f ff 3a a4 2d 77 3d 26 3e 1b 3d 18 6c 26 3d
       0.0019502491 0.06034626 0.037901066 0.04063043
000100 9f 01 3e bd 58 8c 5f bc 18 68 db bb 5a 49 80 bd
       -0.046388265 -0.0136443 -0.0066957586 -0.06263991
000110 1c e5 37 bd 25 53 1c bd b8 56 8a 3d a0 98 2e 3b
       -0.04489623 -0.03816523 0.067548215 0.0026641265
000120 52 ba 82 bd a6 20 86 3d 40 1c 07 3c c8 5b 5f 3d
       -0.06383194 0.06549196 0.008246481 0.05453089
000130 50 d6 a9 3b a4 13 1b 3d 24 42 72 bd 7a cd 20 3d
       0.0051830187 0.037860528 -0.059145108 0.039258458
000140 8a 63 58 3d 16 4d 53 3d 40 72 ec 3c 20 86 58 3d
       0.052829303 0.051587187 0.028863072 0.052862287
000150 00 5c 92 38 e0 8c 2d bc 70 e6 52 3d e0 20 23 3c
       6.978959e-05 -0.010592669 0.051489294 0.0099565685
000160 98 0f ae 3c c0 ac e7 3b 48 44 2d 3d 3c 32 dc 3c
       0.02124767 0.007070154 0.042301446 0.026879422
000170 2b ee 65 bd d8 6d a8 bc a0 11 14 bd 90 74 04 3d
       -0.056135338 -0.02056019 -0.03614962 0.032337725
000180 48 a6 60 bc dc f9 84 3c 72 ae b6 bc f6 aa 28 3d
       -0.01371152 0.016232423 -0.022299979 0.041178666
000190 cf 66 7d bd c8 fd 84 3c a4 d7 a2 3c c0 20 26 3c
       -0.061865624 0.016234294 0.019878216 0.010139644
0001a0 66 51 0d 3d e5 b7 4d bd 3d 84 1b bd 86 ae 82 3d
       0.034501456 -0.050224204 -0.03796791 0.06380944
0001b0 6c 1b 1d bd 88 9e 7c 3d 4a 53 0c bd 6c 88 36 bd
       -0.03835623 0.061674625 -0.03425912 -0.044563696
0001c0 db 59 40 bd 60 cb 4f 3c e4 59 8d bc e6 b7 83 3d
       -0.046960693 0.012682766 -0.017254777 0.0643156
0001d0 87 e1 63 bd a0 94 11 3b 94 65 e1 bc b3 27 6b bd
       -0.055635 0.0022213832 -0.027514257 -0.057410907
0001e0 54 e0 72 bd ac 61 40 bd 80 1c ce ba a0 a3 22 3c
       -0.059295967 -0.046968147 -0.0015725046 0.009926707
0001f0 c6 11 55 3d 08 ea 37 3c 58 2c dd 3c 58 b8 4d bd
       0.052018903 0.011225231 0.026998684 -0.050224632
000200 fc cc 04 bc b8 1a 62 3d c1 64 14 bd d6 65 30 3d
       -0.008105513 0.055201262 -0.0362289 0.04306587
000210 f6 a9 89 bd d5 1d 13 bd 86 14 13 3d 86 7d 3f 3d
       -0.067218706 -0.035917122 0.035908245 0.046750568
000220 1e cf 67 bd bf 94 86 bd 06 46 86 3d a0 6f d2 bb
       -0.056594007 -0.0657134 0.06556325 -0.006421998
000230 68 27 46 bc ca 39 ae bc b6 22 85 3d b0 ac c6 3b
       -0.012094356 -0.02126779 0.06500761 0.0060630664
000240 c8 d9 46 bd a2 cc 4b 3d 98 58 b1 bc 44 20 b0 3c
       -0.048547536 0.0497557 -0.02164869 0.02149976
000250 3c 44 c4 3c e8 f4 1e bd b8 e3 e4 3c fc 58 f9 3c
       0.023958318 -0.03880778 0.027940616 0.030437939
000260 fa 7d 12 bd 55 42 52 bd 58 87 87 bd c8 27 97 3c
       -0.03576467 -0.05133279 -0.06617612 0.018451586
000270 50 a1 87 bb 98 8f be bc 2c c6 42 bd 68 eb 19 bd
       -0.004139103 -0.02326183 -0.047552273 -0.037578017
000280 e8 95 29 3c 64 1f 48 3d 8e 91 57 3d b4 35 73 3d
       0.010350682 0.04885806 0.052629046 0.059377387
000290 dd d0 8a bd 80 35 87 bc aa 45 56 bd 7c d1 01 bc
       -0.06778119 -0.016505003 -0.05231253 -0.00792348
0002a0 76 75 ec bc 68 71 5b bd 0e 75 85 bd c8 d1 c1 3c
       -0.028864603 -0.05357495 -0.06516467 0.023659602
0002b0 70 1f ad 3c be 17 62 bd 0c ac 48 3d fe 4d 0f bd
       0.021133155 -0.055198424 0.0489922 -0.03498649
0002c0 34 6f d2 bc a4 6c 28 bd c2 27 b3 bc 3a d7 89 bd
       -0.025687791 -0.041119233 -0.021869544 -0.06730504
0002d0 c0 c7 fd ba 0c d0 88 3c ac 5a 89 3d 54 c5 ff 3c
       -0.0019361898 0.016700767 0.067067474 0.031222023
0002e0 6c 48 03 bc e8 64 aa bc 9c ed 63 3d 10 2f 4a 3c
       -0.008012872 -0.020800069 0.055646524 0.012340322
0002f0 c2 2e f4 bc 79 47 32 bd 54 4b cf 3c d5 5b 02 bd
       -0.029807452 -0.043525193 0.025304474 -0.03182586
000300 ec bd 51 bd a8 39 03 3d 00 54 27 ba 00 71 61 3c
       -0.051206514 0.032037407 -0.00063830614 0.013759851
000310 b0 5c cc 3b ec 11 c9 bc c0 59 dc ba 40 71 df bc
       0.006236635 -0.024544679 -0.0016811416 -0.027275681
000320 be 42 c6 bc 94 db 06 3d 62 98 bf bc b0 1a 64 3c
       -0.024201747 0.03292425 -0.023388091 0.013922378
000330 60 e3 bb bc b8 07 88 3c b0 1f 83 3c 11 ae 3d bd
       -0.02293557 0.016605243 0.01600632 -0.04630858
000340 8e c3 1a bd 8b 28 80 bd b0 bd 09 3c 20 f0 16 bb
       -0.03778415 -0.06257733 0.008407041 -0.002303131
000350 1d 45 5e bd 20 94 35 bb e0 06 63 3b 7e cf 16 bd
       -0.05426513 -0.0027706698 0.003464155 -0.036818974
000360 7a 1f 58 3d e4 11 65 bd 53 64 1c bd 28 7d 69 3d
       0.052764393 -0.055925265 -0.038181614 0.057004124
000370 9c 3e 15 3d 10 dd e0 bb ba 28 22 3d e0 3f d0 3b
       0.036436662 -0.00686229 0.03958962 0.0063552707
000380 34 69 4e bd c0 47 ef bb a4 1b 3c bc 1e dd 5b bd
       -0.0503933 -0.0073022544 -0.011481199 -0.05367767
000390 d8 3c 5b 3d 02 08 43 3d 62 ef 1c 3d 28 34 65 3c
       0.053524822 0.04761506 0.03831423 0.013989486
0003a0 12 ad 88 bc 94 89 80 bd 30 70 93 bc 8e 5b 41 bd
       -0.016684089 -0.06276241 -0.017997831 -0.047206454
0003b0 28 d0 e6 bc e0 4d 39 3d 1a 88 21 bd 4c cf af bc
       -0.028175429 0.045240283 -0.039436437 -0.021461152
0003c0 6a 95 60 3d d2 2a 78 bd 00 a2 05 ba 70 15 0c 3d
       0.054829992 -0.06058771 -0.0005097687 0.034200132
0003d0 70 cb 5f 3c 68 5f 2c bd fc b2 20 bd 5a c6 cf bc
       0.013659343 -0.042083174 -0.039233193 -0.025363136
0003e0 32 de 57 3d 89 53 00 bd 78 9a 8c 3c 4d 0c 3c bd
       0.052702136 -0.031329665 0.0171635 -0.04591017
0003f0 ca df 8f bc d4 e1 9e bc dc da 7c 3d a4 da 00 bc
       -0.017562766 -0.019394793 0.061732158 -0.007864628

conv_2d.1.bias f4 [16]
000000 00 00 00 00 00 00 00 00 00 00 00 00 00 00 00 00
       0.0 0.0 0.0 0.0
000010 00 00 00 00 00 00 00 00 00 00 00 00 00 00 00 00
       0.0 0.0 0.0 0.0
000020 00 00 00 00 00 00 00 00 00 00 00 00 00 00 00 00
       0.0 0.0 0.0 0.0
000030 00 00 00 00 00 00 00 00 00 00 00 00 00 00 00 00
       0.0 0.0 0.0 0.0

conv_2d.1.running_mean f4 [16]
000000 00 00 00 00 00 00 00 00 00 00 00 00 00 00 00 00
       0.0 0.0 0.0 0.0
000010 00 00 00 00 00 00 00 00 00 00 00 00 00 00 00 00
       0.0 0.0 0.0 0.0
000020 00 00 00 00 00 00 00 00 00 00 00 00 00 00 00 00
       0.0 0.0 0.0 0.0
000030 00 00 00 00 00 00 00 00 00 00 00 00 00 00 00 00
       0.0 0.0 0.0 0.0

conv_2d.1.running_var f4 [16]
000000 00 00 80 3f 00 00 80 3f 00 00 80 3f 00 00 80 3f
       1.0 1.0 1.0 1.0
000010 00 00 80 3f 00 00 80 3f 00 00 80 3f 00 00 80 3f
       1.0 1.0 1.0 1.0
000020 00 00 80 3f 00 00 80 3f 00 00 80 3f 00 00 80 3f
       1.0 1.0 1.0 1.0
000030 00 00 80 3f 00 00 80 3f 00 00 80 3f 00 00 80 3f
       1.0 1.0 1.0 1.0

conv_2d.1.weight f4 [16]
000000 00 00 80 3f 00 00 80 3f 00 00 80 3f 00 00 80 3f
       1.0 1.0 1.0 1.0
000010 00 00 80 3f 00 00 80 3f 00 00 80 3f 00 00 80 3f
       1.0 1.0 1.0 1.0
000020 00 00 80 3f 00 00 80 3f 00 00 80 3f 00 00 80 3f
       1.0 1.0 1.0 1.0
000030 00 00 80 3f 00 00 80 3f 00 00 80 3f 00 00 80 3f
       1.0 1.0 1.0 1.0

conv_2d.3.bias f4 [16]
000000 dc f9 86 3c 90 ce af bb 28 13 2a 3c 00 c4 39 bb
       0.016476564 -0.0053652003 0.010380544 -0.0028345585
000010 01 cc 9d 3d ac eb ad 3c 6e 09 01 3d 90 13 dc bc
       0.07704926 0.021230541 0.031503133 -0.026864797
000020 16 1b 79 bd 00 fc aa ba d0 9b 12 3d a6 b6 78 3d
       -0.060816847 -0.0013045073 0.035793126 0.060721062
000030 b6 2e dd bc 00 6d 3d bd a6 79 fe bc 44 09 a3 bc
       -0.026999813 -0.04624653 -0.031063866 -0.01990188

conv_2d.3.weight f4 [16, 16, 3, 3]
000000 a8 e0 20 3c 9e c9 33 bd 60 c6 bf 3c f4 d6 9b bd
       0.009819187 -0.04389345 0.023410022 -0.076093584
000010 bc da 89 3c d8 37 09 bc f0 59 0a bd 88 96 33 bd
       0.016827933 -0.008375131 -0.033777177 -0.04384473
000020 20 97 36 bb 50 6a aa bc 8f 42 80 bd 52 09 6d 3d
       -0.0027861074 -0.020802647 -0.06262695 0.057870217
000030 ae 63 05 3d 50 bb 64 bd 28 8f 4f 3c 70 cd 92 bd
       0.032565765 -0.055842698 0.012668408 -0.0716809
000040 18 83 5c bd 03 e3 37 bd ee af 20 bd 18 cc a6 bd
       -0.05383596 -0.04489423 -0.03923028 -0.081443965
000050 80 6e 89 bc ee 59 78 bd 80 94 0d ba 0a 69 2d 3d
       -0.016776323 -0.06063264 -0.00054008514 0.0423365
000060 b6 89 38 bd 7e 0e 37 bd da 8e 45 3d 57 16 89 bd
       -0.045053206 -0.044691555 0.048231937 -0.06693714
000070 12 47 7b 3d d0 03 9b 3c 0e f3 08 bd a5 1b a2 3d
       0.061347075 0.018922716 -0.03343492 0.07915429
000080 d8 0b 03 3c ae 56 39 3d 40 a7 2b 3c 7b e5 8a bd
       0.007998429 0.04524868 0.010476887 -0.06782051
000090 7e 95 4b 3d 18 20 22 bd c3 d5 99 bd 29 9b 95 3d
       0.049703114 -0.03958139 -0.07511475 0.07304985
0000a0 00 dd a2 bb 6c 85 b3 bc e0 c6 01 3d 00 11 23 bc
       -0.004970193 -0.021914206 0.031683803 -0.009952784
0000b0 29 b7 8a 3d e2 ec 34 3d 00 d0 bb bb c2 7b 7c 3d
       0.06773216 0.04417122 -0.0057315826 0.061641462
0000c0 28 ef 43 bc 6a f2 78 3d 00 a8 13 39 58 60 3b bc
       -0.011958875 0.06077806 0.00014081597 -0.011436544
0000d0 2a 81 5d 3d ba f1 58 3d ba 04 52 3d b2 c6 7c 3d
       0.05407826 0.052964903 0.05127404 0.061712928
0000e0 f4 15 f4 3c bc 3a a1 bc e2 3f 74 3d b0 56 a7 3b
       0.029795624 -0.019681327 0.059631236 0.0051067695
0000f0 c4 f2 8a bc 00 26 3a 3b 4b d0 82 bd 62 2a 59 3d
       -0.016961463 0.0028403997 -0.06387385 0.053018935
000100 9a bb 16 3d b6 5c 54 3d 5c d9 d9 bc e4 3e 9f bc
       0.036800005 0.05184623 -0.026592903 -0.019439168
000110 3b f9 96 bd e0 07 a8 bd 37 a6 92 bd f4 41 e1 3c
       -0.07371756 -0.08204627 -0.07160609 0.02749727
000120 ac 4b ea bc 40 6e b8 3c 2a 24 88 bd 96 a6 9d bd
       -0.028600536 0.022513509 -0.06647523 -0.07697789
000130 96 45 30 3d 15 45 81 3d 42 bb 55 3d 22 1c 66 3d
       0.043035112 0.063120045 0.052180536 0.056179173
000140 fe 4c 03 3d f4 51 e1 3c 46 95 3f 3d e8 ca 38 3c
       0.032055847 0.027504899 0.046773218 0.011278845
000150 e3 4a 53 bd f0 f8 99 bb a5 96 9a 3d 8c 04 fe 3c
       -0.05158509 -0.004698865 0.075482644 0.031008027
000160 09 29 84 3d ba 4f 2e 3d f7 97 94 3d 52 84 86 bd
       0.06453139 0.042556502 0.072555475 -0.06568207
000170 3a e7 37 3d 0c e6 b5 bc 0c 21 d8 bc 3f aa 9e 3d
       0.04489825 -0.022204421 -0.026382945 0.077473156
000180 b2 d8 8a bd 06 01 46 3d 18 2a 1d bd ba 8f 32 3d
       -0.067796126 0.04834082 -0.03837022 0.0435941
000190 cc 65 e1 3c 78 f4 1c 3c a0 eb 98 bc 3c d4 84 bc
       0.02751436 0.00957977 -0.018667042 -0.016214482
0001a0 1c 86 c8 bc b8 fc 0c 3c 06 fb 0b 3d 65 0b 89 3d
       -0.02447801 0.008605175 0.03417494 0.066916265
0001b0 ce e2 47 3d 76 b6 bb bc 78 36 09 bd e9 18 a0 3d
       0.048800282 -0.022914153 -0.03349921 0.07817251
0001c0 8c a7 a0 bc 03 96 8e 3d bb 28 aa bd 18 77 50 bc
       -0.019611143 0.06962206 -0.0830855 -0.012723707
0001d0 20 bb 77 bc 9c 0a 87 bd 3e b5 0e 3d c7 23 95 3d
       -0.015120298 -0.065938205 0.034840815 0.072822146
0001e0 80 18 0b ba 2e f9 72 bd 97 09 99 3d b2 31 55 3d
       -0.000530608 -0.059319668 0.07472532 0.052049346
0001f0 14 bf 90 bc 57 39 8b 3d a0 98 f7 bc d2 40 36 3d
       -0.017669238 0.06798046 -0.030224144 0.04449541
000200 0e a4 12 3d 6f 9a 99 bd 4c 77 d7 bc 8c 1d ea 3c
       0.035800986 -0.07500159 -0.026302002 0.028578542
000210 fa fb 6b 3d d8 0e 44 3c 00 04 1d bc 58 51 5f 3c
       0.05761335 0.01196643 -0.009583473 0.013630234
000220 73 59 94 3d ab 7e 86 bd 76 fc 1b bd 3e 5f 71 bd
       0.072436236 -0.06567129 -0.038082562 -0.05892872
000230 fc 20 b8 bc 73 02 4d bd d0 3d c9 bc ee 92 52 3d
       -0.022476666 -0.050051164 -0.024565607 0.051409654
000240 98 d2 14 bc 6e 60 8a bd d7 db 95 3d 26 2a 73 3d
       -0.009083413 -0.06756674 0.07317322 0.059366368
000250 6b 72 8f bd e0 95 8e bd 7c d3 cb bc 8e 7f 10 3d
       -0.07004245 -0.0696218 -0.024881117 0.035277896
000260 be 26 89 bd 42 30 40 3d 0b eb a4 3d 74 eb 95 3c
       -0.066968426 0.046921022 0.080526434 0.01830075
000270 00 88 1b 3a 5c 3d d3 3c 18 29 13 bc 68 9b 4b bc
       0.00059330463 0.025786094 -0.0089819655 -0.012427188
000280 c0 ed c3 3b 0e 53 08 bd 63 56 a2 bd 40 73 eb ba
       0.0059792697 -0.033282332 -0.07926633 -0.0017963424
000290 d5 f3 96 3d e6 08 d5 bc 90 9d 98 bc 70 be 8e 3c
       0.07370726 -0.02600522 -0.01862982 0.017424792
0002a0 e0 29 1f 3b f8 95 03 3c 58 d1 50 3c 60 2a 07 3d
       0.0024286434 0.008031361 0.012745224 0.032999396
0002b0 0a a4 3d 3d 98 9d 1f 3c d4 40 a5 bd 68 31 40 bc
       0.046299018 0.009742163 -0.080690056 -0.011730529
0002c0 00 34 04 bd 89 72 93 3d f0 23 0b 3d 52 6c 79 3d
       -0.032276154 0.0719958 0.03396982 0.060894318
0002d0 5e 6d a0 bd 05 62 8c 3d bd 43 9d 3d c0 c3 9d ba
       -0.0783336 0.06854633 0.07678936 -0.0012036487
0002e0 d8 29 63 bd 2e e0 1e 3d 78 cf 60 bd fa 23 6d 3d
       -0.055459827 0.038788013 -0.054885358 0.057895638
0002f0 cc 45 a1 3c 90 f8 14 3d 7e 71 9b bd 1f e7 8b bd
       0.019686602 0.03636986 -0.07590006 -0.06831192
000300 54 90 86 bc e0 e2 97 3c c2 86 2f 3d 26 96 59 bd
       -0.016426243 0.0185408 0.042853124 -0.05312171
000310 de 5f 09 3d 43 a0 33 bd c0 0e 8c bd a0 7c 38 bd
       0.03353869 -0.04385401 -0.06838751 -0.045040727
000320 10 b2 c9 bc c0 7c 52 3c 3d 1f 84 3d 70 cd fb bc
       -0.02462104 0.0128471255 0.06451271 -0.030737609
000330 d8 32 55 bd 5b c3 10 bd 13 a6 55 bd 39 5b a9 3d
       -0.05205044 -0.035342555 -0.052160334 0.082693525
000340 28 62 58 bd 80 15 99 bd 4e 94 7a bd 88 a4 01 3d
       -0.052827984 -0.07474804 -0.06117659 0.03165105
000350 0f fe 98 3d c0 70 b2 ba b0 74 85 bb 8c 8e a0 bc
       0.07470333 -0.0013613924 -0.004072748 -0.019599222
000360 40 ff ae ba d0 d4 2c bd 8e 92 64 3d 2b a7 9d 3d
       -0.0013351217 -0.04219514 0.055803828 0.076979004
000370 0c a4 93 bc b9 be 87 3d 82 30 82 bd c0 28 f8 3b
       -0.01802256 0.06628174 -0.063569084 0.007573217
000380 78 08 99 bd 93 1c 70 bd 58 b3 43 bc 68 b4 27 3c
       -0.074723184 -0.058621 -0.011944614 0.010235883
000390 50 d8 0f bd ba 11 6b 3d b0 67 2e bd 4e 93 70 bd
       -0.0351184 0.057389952 -0.042579353 -0.05873423
0003a0 b6 62 6c 3d 50 72 96 3c d0 d5 0d 3d b0 35 91 bc
       0.057711326 0.018365055 0.034627736 -0.017725796
0003b0 f8 31 02 3c cc 8f fe 3c 1a 85 6e 3d 04 25 d7 3c
       0.007946484 0.031074427 0.058232404 0.026262768
0003c0 60 be b9 bc be af 7c bd 33 89 6c bd 4d 86 85 3d
       -0.022673786 -0.06169104 -0.05774803 0.065197565
0003d0 93 41 79 bd a8 fc 36 bd c0 71 d9 bc e0 95 79 bd
       -0.060853552 -0.044674546 -0.026543498 -0.060933948
0003e0 96 d6 23 3d 4a ea 76 3d a0 94 eb bc e2 45 72 3d
       0.039999567 0.06028203 -0.028757393 0.059148677
0003f0 fa ad 26 3d 26 74 c1 bc b2 d9 96 bd f8 82 33 bc
       0.04069326 -0.023614954 -0.07365741 -0.010956518

conv_2d.4.bias f4 [16]
000000 00 00 00 00 00 00 00 00 00 00 00 00 00 00 00 00
       0.0 0.0 0.0 0.0
000010 00 00 00 00 00 00 00 00 00 00 00 00 00 00 00 00
       0.0 0.0 0.0 0.0
000020 00 00 00 00 00 00 00 00 00 00 00 00 00 00 00 00
       0.0 0.0 0.0 0.0
000030 00 00 00 00 00 00 00 00 00 00 00 00 00 00 00 00
       0.0 0.0 0.0 0.0

conv_2d.4.running_mean f4 [16]
000000 00 00 00 00 00 00 00 00 00 00 00 00 00 00 00 00
       0.0 0.0 0.0 0.0
000010 00 00 00 00 00 00 00 00 00 00 00 00 00 00 00 00
       0.0 0.0 0.0 0.0
000020 00 00 00 00 00 00 00 00 00 00 00 00 00 00 00 00
       0.0 0.0 0.0 0.0
000030 00 00 00 00 00 00 00 00 00 00 00 00 00 00 00 00
       0.0 0.0 0.0 0.0

conv_2d.4.running_var f4 [16]
000000 00 00 80 3f 00 00 80 3f 00 00 80 3f 00 00 80 3f
       1.0 1.0 1.0 1.0
000010 00 00 80 3f 00 00 80 3f 00 00 80 3f 00 00 80 3f
       1.0 1.0 1.0 1.0
000020 00 00 80 3f 00 00 80 3f 00 00 80 3f 00 00 80 3f
       1.0 1.0 1.0 1.0
000030 00 00 80 3f 00 00 80 3f 00 00 80 3f 00 00 80 3f
       1.0 1.0 1.0 1.0

conv_2d.4.weight f4 [16]
000000 00 00 80 3f 00 00 80 3f 00 00 80 3f 00 00 80 3f
       1.0 1.0 1.0 1.0
000010 00 00 80 3f 00 00 80 3f 00 00 80 3f 00 00 80 3f
       1.0 1.0 1.0 1.0
000020 00 00 80 3f 00 00 80 3f 00 00 80 3f 00 00 80 3f
       1.0 1.0 1.0 1.0
000030 00 00 80 3f 00 00 80 3f 00 00 80 3f 00 00 80 3f
       1.0 1.0 1.0 1.0

conv_3d.0.bias f4 [32]
000000 07 b2 d6 bc 40 3c 18 ba 26 60 d0 bc 9a 27 b4 3c
       -0.026207937 -0.0005807318 -0.025436472 0.02199154
000010 20 0b 0c bb d5 8a bf bc 18 bd fc 3c 7a b3 02 bd
       -0.0021368936 -0.02338163 0.030851886 -0.031909443
000020 40 77 46 bb 68 50 ab 3b 11 e2 c9 bc b8 34 55 3c
       -0.003028348 0.005228091 -0.02464393 0.013013057
000030 60 a5 9b bb 28 eb e2 3c c8 ec a7 3c ba 3a 58 bc
       -0.004749939 0.027700022 0.020498648 -0.013197595
000040 80 01 09 3d 60 49 2c 3b 14 c3 2e 3c 3a 7b dd bc
       0.033448696 0.0026288852 0.010666627 -0.027036298
000050 73 19 8b bc 4e 14 d5 3c 75 3f cc bc 89 d0 08 bd
       -0.016979909 0.026010659 -0.024932602 -0.033402
000060 73 7b e2 bc a2 5d f7 bc 34 08 18 3c a2 9f cb bc
       -0.027646756 -0.030196015 0.0092792995 -0.024856392
000070 bc c4 4a 3c 30 8d 7d bc 98 cf 23 3c 02 07 e8 3c
       0.012376007 -0.015475556 0.009998225 0.028323654

conv_3d.0.weight f4 [32, 32, 3, 3, 3]
000000 78 e8 b3 3b 5e 8d 53 bc ee 30 93 3c d9 5f d4 bc
       0.005490359 -0.0129121225 0.017967667 -0.02592461
000010 64 cf ef bb 00 15 08 3d 2e 59 49 bc 98 a9 07 3d
       -0.007318424 0.033223152 -0.0122893285 0.03312072
000020 e8 a4 87 3b 90 4b aa 3b 5c 54 a3 3c 2a 09 6e bc
       0.0041395314 0.005196996 0.019937687 -0.014528552
000030 4a fe c6 3c 80 d0 fa 39 34 99 36 3c 18 e4 98 bb
       0.024291176 0.0004783906 0.011144925 -0.004665863
000040 88 0a 98 3c 54 88 d6 3c bc 83 57 3c 00 fd 16 3a
       0.01855971 0.026188053 0.0131539665 0.0005759746
000050 2a 40 7d bc 14 e0 a3 bc a6 10 be 3c a4 d9 a8 3c
       -0.015457192 -0.02000431 0.023201298 0.020611592
000060 85 17 91 bc 0f 46 f6 bc 42 a7 c5 bc 66 2e 6d bc
       -0.01771141 -0.030062703 -0.024127606 -0.014476394
000070 b6 c4 ef bc 80 b0 18 bc 98 e6 b6 bc 8a f4 96 3c
       -0.029268604 -0.009319425 -0.022326753 0.018427152
000080 e0 9a f2 3c d0 de c6 3b 0c 5a da bc 18 4f 79 bb
       0.029614866 0.006069042 -0.026654266 -0.0038041528
000090 00 b1 ba 3c a8 6a e3 3b 00 25 1d 3b d4 d8 4d 3c
       0.022789478 0.0069402047 0.0023978353 0.012563903
0000a0 8e ae 0a 3d 28 ee d0 bc 08 49 e9 3b 6c 41 a6 3c
       0.033857875 -0.025504187 0.0071193017 0.020294867
0000b0 34 ee ff 3c 0c 19 78 3c 48 29 d8 bb 30 13 e6 3b
       0.031241514 0.01514269 -0.006596718 0.0070213303
0000c0 14 0a d6 bc 44 d7 62 3c 00 b7 c5 bb 70 f7 6d bb
       -0.026127852 0.013845269 -0.006033778 -0.0036310814
0000d0 b4 5e 17 3c 20 c8 8a ba cc cb 8a bb da 01 a0 3c
       0.009238888 -0.0010588206 -0.0042357203 0.019532133
0000e0 64 d4 21 bc 80 aa 34 ba d4 2d 0b bd e0 e9 1b bc
       -0.009877298 -0.00068918616 -0.033979252 -0.009516209
0000f0 30 50 ca bb 36 db ae 3c f4 e1 e5 3c 29 98 a6 bc
       -0.00617411 0.021344762 0.028061844 -0.020336227
000100 50 ce 7f bc 28 80 a3 3b dc 98 08 3c a5 c0 01 bd
       -0.015613154 0.0049896426 0.008337226 -0.03167786
000110 a0 fb db 3c 68 f2 f8 3b dc 0d 68 bc b6 07 e4 3c
       0.026853383 0.0075972565 -0.014163461 0.027835708
000120 80 06 12 bb b8 4a 56 3c e0 58 86 bb 48 94 51 3c
       -0.0022281706 0.013079338 -0.00409995 0.012791701
000130 94 e9 8b bc b3 77 fd bc 94 f2 bf 3c 04 9c 02 3d
       -0.017079152 -0.030940866 0.0234311 0.03188707
000140 90 22 88 3b 6a 59 c2 3c e0 ec 54 3b fa 9d ef bc
       0.004154511 0.023724277 0.0032489821 -0.029250134
000150 5a f1 b6 bc d5 5d 8e bc 70 c9 d8 3b 90 f6 ea 3b
       -0.022331882 -0.017378727 0.00661581 0.007170506
000160 50 4c 85 bb 00 df a7 3a d4 5b ae bc 1e 74 2e bc
       -0.004067935 0.0012807548 -0.021284021 -0.010647802
000170 a4 7e 65 3c 80 72 e0 b9 98 47 a5 bc 56 0f 02 bd
       0.014007244 -0.00042809919 -0.02017574 -0.031752907
000180 36 8e 93 bc dc 71 fa 3c 90 0a d9 3c 22 a4 a6 3c
       -0.018012147 0.03057187 0.026494294 0.020341936
000190 6c 9f 3c 3c 25 82 dc bc aa c8 87 3c c0 9b 0b ba
       0.0115126185 -0.026917526 0.016575176 -0.0005325638
0001a0 60 55 c2 3b c0 b0 44 bc c9 7e df bc dc aa ea 3c
       0.0059305876 -0.012005031 -0.027282136 0.028645925
0001b0 9f 1f f7 bc 12 4a f0 bc 18 ac c1 bb 62 15 b1 3c
       -0.030166445 -0.029332194 -0.0059104078 0.021616641
0001c0 4e 03 84 bc c0 02 bf bb 02 ec 7b bc de 4f a2 bc
       -0.016114857 -0.0058291852 -0.015376093 -0.019813474
0001d0 c8 51 d7 3b 9c a0 83 3c 84 60 cd 3c bc 37 05 3d
       0.0065710284 0.016067795 0.025070436 0.032523856
0001e0 03 ec b9 bc 1d 27 08 bd b8 74 bf 3b 44 36 dd bc
       -0.022695547 -0.033240426 0.0058427714 -0.027003415
0001f0 44 40 88 3c 42 51 a1 3c 54 d4 b4 bc 40 53 34 3c
       0.016632207 0.019692067 -0.022073902 0.0110061765
000200 30 11 72 bc 4c 01 94 3c 80 97 48 bb 44 22 86 3c
       -0.014774606 0.018067025 -0.003060788 0.016373761
000210 70 e8 f3 bc 55 86 f0 bc 6a 7f c4 3c 40 a3 39 3a
       -0.02977392 -0.02936093 0.023986537 0.0007081516
000220 1c 7a b7 bc 34 5c 8a 3c 47 d2 8a bc 4c 9a ac 3c
       -0.022397093 0.016889669 -0.016945971 0.021069668
000230 68 7d 3b 3c 97 61 d4 bc 64 02 93 3c 6a 06 c9 3c
       0.011443473 -0.02592544 0.017945476 0.024539191
000240 1c 52 5d bc 14 a7 e3 3c 7a e6 ce bc 04 46 04 3c
       -0.013508346 0.02778963 -0.025256384 0.008073334
000250 24 3b c4 bc 2e 00 e7 3c ac 17 d4 3c 00 75 b1 b9
       -0.023953982 0.028198328 0.025890194 -0.00033847243
000260 e8 47 43 3c 28 36 87 3b 40 0e c9 3b a0 60 b3 ba
       0.011918999 0.004126329 0.006135732 -0.0013685413
000270 54 40 81 3c 76 47 cc bc 80 9d 67 3a c8 c5 a6 bc
       0.015777744 -0.024936419 0.000883542 -0.020357981
000280 0e 53 be bc 30 5d e8 bc a0 38 eb bc f8 60 e0 3b
       -0.023232963 -0.028364748 -0.028713524 0.006847497
000290 40 9e 1e ba 4e b6 da bc f0 ed c0 3c 78 cc 8b bb
       -0.0006050803 -0.026698258 0.023550957 -0.004266318
0002a0 48 00 c0 bc dc b8 9d 3c 8c a5 be bc c2 13 db 3c
       -0.023437634 0.019253187 -0.023272298 0.02674282
0002b0 1c 81 07 bd 08 85 07 3d 00 93 00 ba a4 0f 7b 3c
       -0.033082113 0.033085853 -0.0004904717 0.015323553
0002c0 e0 92 d0 3b c8 ac e5 3c fe b3 04 3d 78 6f 0d 3c
       0.006365165 0.02803649 0.032398216 0.008632533
0002d0 72 7b 63 bc 52 32 ae 3c f8 db 0e 3c 90 75 0a bd
       -0.013884412 0.021264229 0.008719437 -0.033803523
0002e0 60 c3 a0 ba 56 fa b2 bc 20 77 07 bc a0 5c d7 bc
       -0.0012265258 -0.021847885 -0.008268148 -0.026289284
0002f0 68 ce 88 3c 30 ec ec bb 40 19 fe 3a e6 ac 9f bc
       0.016699985 -0.007230304 0.0019386187 -0.019491624
000300 d9 3f c6 bc c0 61 02 3b e0 ea 02 bb bc fc d1 3c
       -0.024200367 0.001989469 -0.0019976422 0.025633208
000310 f0 7d 89 bc a0 cd a2 3c 1c f2 bd bb 0e 04 0b bd
       -0.016783684 0.01987344 -0.005796684 -0.033939414
000320 50 c4 2d bb 40 4e ba bb e9 52 e6 bc 2c 73 86 bb
       -0.0026514716 -0.0056855977 -0.028115707 -0.004103085
000330 d8 fe 82 bc be 80 bd 3c d6 e5 d2 3c cc 61 ec 3c
       -0.01599066 0.023132678 0.02574436 0.028855227
000340 5a ee 94 3c 68 5e 8e 3c a2 e5 ac 3c a8 12 f1 3c
       0.018180061 0.017379 0.021105591 0.029427841
000350 80 c9 c7 ba cc 25 f2 3c 1c ce ea 3c 80 56 b4 3b
       -0.0015242547 0.029559039 0.028662734 0.0055034757
000360 b0 2b d6 3b f0 a3 9c 3c d9 c5 de bc 14 67 a7 bb
       0.0065359697 0.01912114 -0.02719395 -0.0051087234
000370 88 dc b9 bc e3 d8 f5 bc 0c 6b f8 3c d0 35 55 bc
       -0.022688165 -0.030010646 0.030324481 -0.013013318
000380 ed 41 9d bc b6 05 20 bc e6 e0 7e bc 20 0f e1 3b
       -0.019196475 -0.009766987 -0.01555655 0.006868258
000390 ac 50 5d 3c 54 4b df bc ea ad 01 3d 00 e1 8f 3a
       0.013508003 -0.027257599 0.031659998 0.0010977089
0003a0 a2 63 45 bc f4 38 ee bb 9c b8 cd bc 5c 3d fe bc
       -0.01204768 -0.007269973 -0.025112443 -0.031035118
0003b0 6f 97 de bc ec c5 a9 bc 60 2d c3 bb 2e bc 7c bc
       -0.027171819 -0.02072426 -0.005956337 -0.015425725
0003c0 e4 ef 97 bc 7c eb 34 bc e2 a1 d4 bc 00 9f b9 39
       -0.018547006 -0.011042472 -0.025956098 0.00035404414
0003d0 e0 72 e2 3b 60 85 24 3b 40 ec 98 3c ea 5e 06 bc
       0.006910667 0.0025103912 0.01866734 -0.00820134
0003e0 80 e0 e5 ba 60 09 df 3c cf 7b 05 bd 40 be 04 3a
       -0.001753822 0.02722615 -0.032588776 0.000506375
0003f0 b2 c4 bc 3c a4 b4 f0 3c 00 60 69 3b 68 8f 91 3c
       0.02304301 0.029383011 0.00356102 0.017768577

conv_3d.1.bias f4 [32]
000000 00 00 00 00 00 00 00 00 00 00 00 00 00 00 00 00
       0.0 0.0 0.0 0.0
000010 00 00 00 00 00 00 00 00 00 00 00 00 00 00 00 00
       0.0 0.0 0.0 0.0
000020 00 00 00 00 00 00 00 00 00 00 00 00 00 00 00 00
       0.0 0.0 0.0 0.0
000030 00 00 00 00 00 00 00 00 00 00 00 00 00 00 00 00
       0.0 0.0 0.0 0.0
000040 00 00 00 00 00 00 00 00 00 00 00 00 00 00 00 00
       0.0 0.0 0.0 0.0
000050 00 00 00 00 00 00 00 00 00 00 00 00 00 00 00 00
       0.0 0.0 0.0 0.0
000060 00 00 00 00 00 00 00 00 00 00 00 00 00 00 00 00
       0.0 0.0 0.0 0.0
000070 00 00 00 00 00 00 00 00 00 00 00 00 00 00 00 00
       0.0 0.0 0.0 0.0

conv_3d.1.running_mean f4 [32]
000000 00 00 00 00 00 00 00 00 00 00 00 00 00 00 00 00
       0.0 0.0 0.0 0.0
000010 00 00 00 00 00 00 00 00 00 00 00 00 00 00 00 00
       0.0 0.0 0.0 0.0
000020 00 00 00 00 00 00 00 00 00 00 00 00 00 00 00 00
       0.0 0.0 0.0 0.0
000030 00 00 00 00 00 00 00 00 00 00 00 00 00 00 00 00
       0.0 0.0 0.0 0.0
000040 00 00 00 00 00 00 00 00 00 00 00 00 00 00 00 00
       0.0 0.0 0.0 0.0
000050 00 00 00 00 00 00 00 00 00 00 00 00 00 00 00 00
       0.0 0.0 0.0 0.0
000060 00 00 00 00 00 00 00 00 00 00 00 00 00 00 00 00
       0.0 0.0 0.0 0.0
000070 00 00 00 00 00 00 00 00 00 00 00 00 00 00 00 00
       0.0 0.0 0.0 0.0

conv_3d.1.running_var f4 [32]
000000 00 00 80 3f 00 00 80 3f 00 00 80 3f 00 00 80 3f
       1.0 1.0 1.0 1.0
000010 00 00 80 3f 00 00 80 3f 00 00 80 3f 00 00 80 3f
       1.0 1.0 1.0 1.0
000020 00 00 80 3f 00 00 80 3f 00 00 80 3f 00 00 80 3f
       1.0 1.0 1.0 1.0
000030 00 00 80 3f 00 00 80 3f 00 00 80 3f 00 00 80 3f
       1.0 1.0 1.0 1.0
000040 00 00 80 3f 00 00 80 3f 00 00 80 3f 00 00 80 3f
       1.0 1.0 1.0 1.0
000050 00 00 80 3f 00 00 80 3f 00 00 80 3f 00 00 80 3f
       1.0 1.0 1.0 1.0
000060 00 00 80 3f 00 00 80 3f 00 00 80 3f 00 00 80 3f
       1.0 1.0 1.0 1.0
000070 00 00 80 3f 00 00 80 3f 00 00 80 3f 00 00 80 3f
       1.0 1.0 1.0 1.0

conv_3d.1.weight f4 [32]
000000 00 00 80 3f 00 00 80 3f 00 00 80 3f 00 00 80 3f
       1.0 1.0 1.0 1.0
000010 00 00 80 3f 00 00 80 3f 00 00 80 3f 00 00 80 3f
       1.0 1.0 1.0 1.0
000020 00 00 80 3f 00 00 80 3f 00 00 80 3f 00 00 80 3f
       1.0 1.0 1.0 1.0
000030 00 00 80 3f 00 00 80 3f 00 00 80 3f 00 00 80 3f
       1.0 1.0 1.0 1.0
000040 00 00 80 3f 00 00 80 3f 00 00 80 3f 00 00 80 3f
       1.0 1.0 1.0 1.0
000050 00 00 80 3f 00 00 80 3f 00 00 80 3f 00 00 80 3f
       1.0 1.0 1.0 1.0
000060 00 00 80 3f 00 00 80 3f 00 00 80 3f 00 00 80 3f
       1.0 1.0 1.0 1.0
000070 00 00 80 3f 00 00 80 3f 00 00 80 3f 00 00 80 3f
       1.0 1.0 1.0 1.0

conv_3d.3.bias f4 [32]
000000 4c fd 3d 3c 78 36 82 3c b4 65 de bb e4 27 00 3d
       0.011596035 0.015895113 -0.0067870263 0.031288043
000010 80 f8 fd ba 8c a6 c3 bc 20 85 a5 3a 30 63 08 3d
       -0.0019376427 -0.023883127 0.0012628175 0.033297718
000020 90 02 86 3b 1e ba 9b 3c 9e 4a 9c 3c 64 e3 73 3c
       0.004089661 0.019009646 0.019078549 0.014885757
000030 ea cc 14 bc 0e b6 d2 bc 38 a3 88 3c b4 85 8e 3c
       -0.009082058 -0.025721576 0.016679391 0.017397739
000040 64 9e b6 bb b0 41 72 bb b4 a8 81 3c 78 5c a6 bb
       -0.005573081 -0.0036965422 0.015827514 -0.005076941
000050 32 c8 f0 bc 80 b6 9f 3b b8 41 9d 3b e8 71 4c 3c
       -0.029392336 0.0048740506 0.004799094 0.012478329
000060 c2 a8 86 bc 90 75 91 bc 80 fe 54 3b 64 c5 fd 3c
       -0.016437892 -0.017756253 0.0032500327 0.030977912
000070 7c af af bb b0 ed 26 3b c6 b1 e2 3c 96 8a c4 3c
       -0.0053614955 0.0025471263 0.02767266 0.023991864

conv_3d.3.weight f4 [32, 32, 3, 3, 3]
000000 26 a7 03 3d da 42 71 bc b2 38 00 bd ea 72 02 3d
       0.032141827 -0.014725411 -0.03130407 0.03184787
000010 80 8a 6c 3a 18 ca b2 3c 38 f1 7a bb 00 24 0b 3d
       0.00090233237 0.021824881 -0.003829075 0.03396988
000020 8e 02 e6 3c f4 5d 05 3d 00 1a 94 38 d7 b5 c3 bc
       0.02807739 0.032560304 7.062033e-05 -0.023890419
000030 68 90 09 3c c8 d1 c7 bb 00 8f 75 3a 0c aa f6 bb
       0.008396246 -0.006098006 0.0009367317 -0.0075275954
000040 8c 96 42 3c 5e 3b a1 bc 6c c6 aa 3c e4 fc 9e bc
       0.0118767135 -0.019681629 0.020846568 -0.019407697
000050 4a 68 6b bc d8 cf 8e bc 22 f5 a3 3c 5a 35 0b bc
       -0.014368126 -0.017433092 0.02001435 -0.008496607
000060 a0 74 c2 3c a0 dd e8 3a 48 6d f0 bc 74 f8 f3 3c
       0.023737252 0.0017766245 -0.029348984 0.029781558
000070 f6 4f d4 3c 7a 08 02 3d 71 8c 00 bd 72 36 85 3c
       0.025917035 0.031746365 -0.031383935 0.016261313
000080 62 cd 9b 3c 64 be ff 3c a8 b4 e9 3c a8 12 57 3c
       0.019018833 0.031218715 0.028528526 0.013127007
000090 c0 0f 12 3b 0a 69 d1 bc ac ca 8c bb 68 ad c1 3b
       0.002228722 -0.025562782 -0.0042966213 0.005910564
0000a0 b8 00 af bc 5c 59 27 bc 38 c8 c2 3c 9c 17 ed 3c
       -0.021362647 -0.010214176 0.023777112 0.028941922
0000b0 c2 e4 c2 3c 9e bb 8a 3c 38 3f 16 3c 62 8c d0 bc
       0.02379072 0.016935166 0.009170346 -0.025457565
0000c0 a2 6c 93 bc bc f0 ed 3c e8 9a 18 3c c5 7a 96 bc
       -0.017996136 0.029045455 0.009314276 -0.018369088
0000d0 06 01 87 3c 08 a1 b6 3b 64 1b 9d bb 20 61 85 3a
       0.01647998 0.0055733956 -0.004794525 0.001017604
0000e0 c8 e9 a7 3b d0 74 d0 3c e0 b4 e6 bc 46 41 cf 3c
       0.0051243044 0.025446326 -0.02816242 0.02529968
0000f0 78 c9 b5 3b 6c 40 60 bc 4a 47 bb 3c f8 e5 dc 3c
       0.0055476986 -0.013687234 0.022861142 0.026965126
000100 45 b0 e7 bc 5e c0 af bc 48 7b e9 3b 9c 30 59 3c
       -0.028282294 -0.021454033 0.007125292 0.013256218
000110 17 01 f0 bc 88 cf 56 bb ba 6b c8 bc 9f 53 81 bc
       -0.029297395 -0.0032777507 -0.02446543 -0.015786944
000120 cc 17 b3 bc 60 bb a3 bc 70 cc 8a bc e8 30 04 bc
       -0.021861933 -0.019986808 -0.016943187 -0.008068301
000130 4e 9e 0a 3d 26 5c 6f bc 08 52 dc 3b 58 62 5e bc
       0.033842377 -0.014609372 0.006723646 -0.013573252
000140 fe 2a 76 bc d0 c2 52 bc b8 99 87 3c 00 f7 a4 ba
       -0.015024899 -0.01286383 0.016552791 -0.0012585819
000150 b0 e7 78 bc 54 90 f0 3c 40 d2 39 3a 28 39 fa 3c
       -0.015191957 0.029365696 0.00070885196 0.030544832
000160 75 67 cf bc a2 c1 3f bc 8c 98 ed 3c 58 84 f7 3c
       -0.025317887 -0.0117038805 0.029003404 0.030214474
000170 dc d6 d8 bc 90 29 fd 3b 18 13 1d bc 20 e2 6f bb
       -0.02646964 0.007725902 -0.009587072 -0.0036603287
000180 00 be 33 3b 6b 5b 8b bc 26 6b a3 3c b8 f5 fe 3c
       0.0027426481 -0.017011365 0.019948553 0.031123027
000190 8a 01 a2 bc 5a b9 e2 3c 83 6a 8e bc 90 5a e8 bc
       -0.019776125 0.027676273 -0.017384773 -0.028363496
0001a0 00 bf be 3a 54 44 fb 3c ac 2e b8 bc 18 92 bb 3c
       0.0014552772 0.03067223 -0.022483192 0.022896811
0001b0 96 5b 27 bc 1c ea 00 bc b0 2a f4 bb 7c a2 9b 3c
       -0.010214707 -0.007868316 -0.007451378 0.018998377
0001c0 4d 38 08 bd f4 83 64 3c 65 1e e2 bc 73 38 03 bd
       -0.033256818 0.013947476 -0.027602384 -0.032036256
0001d0 fa 29 01 3d ca 3c 84 3c 52 c7 f5 bc a0 1a 25 bc
       0.031534173 0.016142268 -0.03000227 -0.010077149
0001e0 bc 19 b7 3c b4 2b ee 3c 3b 86 e9 bc 80 22 11 3a
       0.022351138 0.029073574 -0.028506389 0.0005536452
0001f0 bd d5 08 bd 32 10 42 bc 20 a6 26 3b 1e 87 d9 bc
       -0.03340696 -0.011844682 0.0025428608 -0.026553687
000200 f6 15 6b bc ee 29 c3 bc 2e 70 9e 3c a0 1a 9c 3b
       -0.014348498 -0.023823705 0.0193406 0.004763916
000210 88 24 90 3b d2 3f 5f bc 50 0d 8b bc 24 1a 07 3d
       0.004398886 -0.013626056 -0.016974121 0.032983914
000220 4a 9b 9a 3c 30 f0 17 bb b0 41 47 bc fc a9 74 3c
       0.018872876 -0.0023183934 -0.012161657 0.014933106
000230 70 d0 ea bc 0c 43 99 bb fe b6 6d bc 4d 95 95 bc
       -0.028663844 -0.004677182 -0.014508961 -0.018259669
000240 ac e1 09 bd e0 49 f2 3a 94 6b 92 3c ba 42 91 bc
       -0.033662483 0.0018485151 0.017873563 -0.017732013
000250 a0 87 a7 ba f7 da 98 bc b2 fd 7b bc 80 dc 67 bb
       -0.0012781508 -0.018659098 -0.01538031 -0.003537923
000260 40 d7 2a ba d0 a2 3b 3b 1e 97 0c bc 40 44 bd ba
       -0.000651706 0.002863098 -0.008580951 -0.0014439896
000270 1c e2 5b 3c 70 f3 fe 3c 82 7c c0 3c a4 89 8e bc
       0.013420608 0.03112194 0.02349687 -0.017399617
000280 f0 f9 10 3c 72 cb 9b bc d3 16 0a bd e0 42 99 3a
       0.008848652 -0.019017909 -0.033713173 0.0011692904
000290 96 b5 80 3c 18 36 cb bc fa 22 00 3d 44 a0 fb 3c
       0.015711587 -0.024806067 0.031283356 0.030716069
0002a0 ce 78 2c bc 5c 45 c5 bc 5f b4 c2 bc dc 17 be 3c
       -0.010526849 -0.024080925 -0.023767648 0.023204736
0002b0 ec 8e 89 bc 20 08 f1 3b 1b b1 07 bd 1a f6 ba 3c
       -0.016791783 0.007355705 -0.033127885 0.022822428
0002c0 f2 ca 6e bc a4 14 f8 3c 7e 1d 84 bc 00 60 7c b7
       -0.014574753 0.03028328 -0.016127344 -1.5042722e-05
0002d0 f8 f6 b3 3b 94 e8 c2 3c a6 34 7a bc ca d8 a9 bc
       0.0054920875 0.023792543 -0.015271341 -0.020733256
0002e0 20 db 98 ba ac 70 67 3c 82 e7 87 bc 28 f6 cd 3c
       -0.0011661984 0.014125984 -0.016589884 0.02514179
0002f0 20 22 e6 3c 24 b1 1d bc 9e 9a d7 bc 98 df f3 3c
       0.028092444 -0.009624753 -0.026318844 0.029769704
000300 10 af 78 bb d8 14 37 3c 3c 2a bc bb f8 b3 ed 3c
       -0.0037946142 0.011174403 -0.0057423394 0.02901648
000310 90 49 fa 3c a0 94 3c 3b 1e 63 b1 bc a0 4b 4d 3b
       0.030552655 0.002877511 -0.021653708 0.0031325594
000320 82 fd d0 bc 64 a1 de 3c 84 b8 fd 3c 2c fa 9e bb
       -0.025511507 0.027176566 0.030971773 -0.0048516
000330 e9 33 9d bc 1c bd e3 bc a8 18 bf 3b 96 1b c2 3c
       -0.019189792 -0.027800135 0.0058317967 0.023694795
000340 4c be 21 3c fa b7 ac 3c 80 ed 37 3b c0 ed 50 3b
       0.0098720305 0.02108382 0.0028065145 0.0031879991
000350 4e 55 f7 bc d0 d9 ef 3b 38 df c0 bc 31 88 80 bc
       -0.030192044 0.0073196664 -0.023543939 -0.015689941
000360 b7 ad cd bc 38 49 ce 3b 08 9d 02 3d 52 01 c9 3c
       -0.025107248 0.0062953494 0.031888038 0.024536762
000370 6d e2 8e bc 1c f7 6c 3c 80 eb b7 3a 6e 75 82 3c
       -0.017441953 0.014463212 0.0014031976 0.015925135
000380 69 98 01 bd 38 8d bf bc 46 d2 02 bc 20 a4 0a 3c
       -0.03163949 -0.023382768 -0.007984703 0.008461982
000390 66 04 20 bc d9 bb 9d bc 80 95 aa 39 c0 d5 96 3b
       -0.009766674 -0.019254612 0.00032536313 0.0046031177
0003a0 20 a2 8b 3b d8 08 e7 3b 40 71 00 ba 7c 2b 5d bc
       0.00426127 0.007050615 -0.0004899688 -0.013499137
0003b0 84 5a 13 3c c0 a6 e9 3c ec 98 8a bb 04 86 f4 3c
       0.008993749 0.028521895 -0.0042296555 0.02984906
0003c0 10 2c 3f bb 82 af e6 bc 60 f4 82 3c 0e 6a f8 bc
       -0.002917055 -0.02815986 0.015985668 -0.030324008
0003d0 12 5e b3 bc 88 dc b5 bb 00 34 5c 3b 23 99 d7 bc
       -0.021895442 -0.005549971 0.003360033 -0.026318138
0003e0 34 bb ff bb 4a 69 d4 bc fe 85 a7 bc 08 0a 6d 3c
       -0.007804299 -0.025929112 -0.020449635 0.014467724
0003f0 1c ae 1a 3c 78 08 6f 3c 58 3b 97 3b b4 e7 a3 3c
       0.009440925 0.014589421 0.0046152286 0.020007946

conv_3d.4.bias f4 [32]
000000 00 00 00 00 00 00 00 00 00 00 00 00 00 00 00 00
       0.0 0.0 0.0 0.0
000010 00 00 00 00 00 00 00 00 00 00 00 00 00 00 00 00
       0.0 0.0 0.0 0.0
000020 00 00 00 00 00 00 00 00 00 00 00 00 00 00 00 00
       0.0 0.0 0.0 0.0
000030 00 00 00 00 00 00 00 00 00 00 00 00 00 00 00 00
       0.0 0.0 0.0 0.0
000040 00 00 00 00 00 00 00 00 00 00 00 00 00 00 00 00
       0.0 0.0 0.0 0.0
000050 00 00 00 00 00 00 00 00 00 00 00 00 00 00 00 00
       0.0 0.0 0.0 0.0
000060 00 00 00 00 00 00 00 00 00 00 00 00 00 00 00 00
       0.0 0.0 0.0 0.0
000070 00 00 00 00 00 00 00 00 00 00 00 00 00 00 00 00
       0.0 0.0 0.0 0.0

conv_3d.4.running_mean f4 [32]
000000 00 00 00 00 00 00 00 00 00 00 00 00 00 00 00 00
       0.0 0.0 0.0 0.0
000010 00 00 00 00 00 00 00 00 00 00 00 00 00 00 00 00
       0.0 0.0 0.0 0.0
000020 00 00 00 00 00 00 00 00 00 00 00 00 00 00 00 00
       0.0 0.0 0.0 0.0
000030 00 00 00 00 00 00 00 00 00 00 00 00 00 00 00 00
       0.0 0.0 0.0 0.0
000040 00 00 00 00 00 00 00 00 00 00 00 00 00 00 00 00
       0.0 0.0 0.0 0.0
000050 00 00 00 00 00 00 00 00 00 00 00 00 00 00 00 00
       0.0 0.0 0.0 0.0
000060 00 00 00 00 00 00 00 00 00 00 00 00 00 00 00 00
       0.0 0.0 0.0 0.0
000070 00 00 00 00 00 00 00 00 00 00 00 00 00 00 00 00
       0.0 0.0 0.0 0.0

conv_3d.4.running_var f4 [32]
000000 00 00 80 3f 00 00 80 3f 00 00 80 3f 00 00 80 3f
       1.0 1.0 1.0 1.0
000010 00 00 80 3f 00 00 80 3f 00 00 80 3f 00 00 80 3f
       1.0 1.0 1.0 1.0
000020 00 00 80 3f 00 00 80 3f 00 00 80 3f 00 00 80 3f
       1.0 1.0 1.0 1.0
000030 00 00 80 3f 00 00 80 3f 00 00 80 3f 00 00 80 3f
       1.0 1.0 1.0 1.0
000040 00 00 80 3f 00 00 80 3f 00 00 80 3f 00 00 80 3f
       1.0 1.0 1.0 1.0
000050 00 00 80 3f 00 00 80 3f 00 00 80 3f 00 00 80 3f
       1.0 1.0 1.0 1.0
000060 00 00 80 3f 00 00 80 3f 00 00 80 3f 00 00 80 3f
       1.0 1.0 1.0 1.0
000070 00 00 80 3f 00 00 80 3f 00 00 80 3f 00 00 80 3f
       1.0 1.0 1.0 1.0

conv_3d.4.weight f4 [32]
000000 00 00 80 3f 00 00 80 3f 00 00 80 3f 00 00 80 3f
       1.0 1.0 1.0 1.0
000010 00 00 80 3f 00 00 80 3f 00 00 80 3f 00 00 80 3f
       1.0 1.0 1.0 1.0
000020 00 00 80 3f 00 00 80 3f 00 00 80 3f 00 00 80 3f
       1.0 1.0 1.0 1.0
000030 00 00 80 3f 00 00 80 3f 00 00 80 3f 00 00 80 3f
       1.0 1.0 1.0 1.0
000040 00 00 80 3f 00 00 80 3f 00 00 80 3f 00 00 80 3f
       1.0 1.0 1.0 1.0
000050 00 00 80 3f 00 00 80 3f 00 00 80 3f 00 00 80 3f
       1.0 1.0 1.0 1.0
000060 00 00 80 3f 00 00 80 3f 00 00 80 3f 00 00 80 3f
       1.0 1.0 1.0 1.0
000070 00 00 80 3f 00 00 80 3f 00 00 80 3f 00 00 80 3f
       1.0 1.0 1.0 1.0

conv_3d.6.weight f4 [1, 32, 3, 3, 3]
000000 a0 08 57 bc 02 01 f1 bc 40 9b 3b 3a f0 fe 1b bb
       -0.013124615 -0.029419426 0.0007156618 -0.0023803078
000010 0e 30 02 bd 53 07 09 bd d0 c1 30 bb 9e 31 99 bc
       -0.03178411 -0.03345425 -0.002697099 -0.018700417
000020 a0 ab b1 3c ec 6c 3a 3c 12 37 9c bc 00 88 9e 37
       0.021688282 0.011378508 -0.019069228 1.8898398e-05
000030 e8 08 aa 3c ea b9 d5 bc 08 ed 68 3c 04 c8 f5 bb
       0.0207562 -0.026089627 0.014216669 -0.0075006504
000040 18 cd 1a 3c 04 0c d2 bc 00 3e 89 39 e5 94 9a bc
       0.009448312 -0.025640495 0.0002617687 -0.018869827
000050 46 93 8d bc 5c 16 67 3c 26 67 de 3c 66 5b 03 3d
       -0.01728214 0.014104452 0.027148794 0.032069586
000060 24 0e 0d 3c 00 2e 62 39 66 4c 5d bc 80 9a e5 ba
       0.008609328 0.00021570176 -0.013506984 -0.0017517358
000070 34 43 17 bc 0e 4b 43 bc 50 35 17 3b 50 c9 1f 3b
       -0.009232331 -0.01191975 0.0023072548 0.0024381466
000080 1d 48 a2 bc b0 56 02 bd d8 9f 85 bb 8c 5a a7 3c
       -0.019809777 -0.031820953 -0.0040778928 0.020428918
000090 e0 bd 6a 3b 6a 5a d4 3c e7 42 08 bd d0 76 c6 3c
       0.003581874 0.025922019 -0.033266928 0.024226576
0000a0 6a 94 9e 3c 06 03 a5 bc 89 2f c9 bc d6 4f 2b bc
       0.019357879 -0.020143043 -0.0245588 -0.010456046
0000b0 a0 9d f3 bc e8 86 fb bc 34 6e a8 bb d0 5a 3a 3c
       -0.029738247 -0.030703977 -0.0051400904 0.01137419
0000c0 62 b9 b7 bc 60 d1 d3 bc 17 7a 8c bc a7 e1 fc bc
       -0.022427265 -0.025856674 -0.01714806 -0.030869318
0000d0 00 90 47 ba 7c 38 0a 3c 80 67 7c bc 80 ec 60 ba
       -0.0007612705 0.0084363185 -0.015405536 -0.0008580163
0000e0 52 e7 b4 bc 06 a1 9b 3c ec 46 73 bc c8 29 24 bc
       -0.022082958 0.01899768 -0.014848452 -0.010019727
0000f0 d0 3e b4 bb 28 ab 93 3b 14 5a ce bc b0 1c 6a 3b
       -0.005500652 0.0045064874 -0.025189437 0.0035722665
000100 fb ec 8c bc 9e 9e 06 3d cb d7 8f bc 14 5a e7 bb
       -0.017202845 0.032866113 -0.017558953 -0.0070602987
000110 3d ab 87 bc e4 ea 01 3d 06 5f b5 bc 40 ff 3f 3a
       -0.016561145 0.03171815 -0.022140037 0.0007324107
000120 7e 5d 88 3c 92 11 86 bc 59 42 86 bc 97 4e d7 bc
       0.016646143 -0.0163658 -0.016389059 -0.026282592
000130 68 c7 3c bb 0a 44 cc 3c 72 05 02 bd 7c fb d9 3c
       -0.0028805379 0.024934787 -0.031743474 0.026609175
000140 fa 12 ea bc 04 37 59 3c ca 4c f2 bc f8 04 8e 3c
       -0.028573502 0.013257746 -0.029577632 0.017336354
000150 1e e6 a9 bc 8a 95 65 bc a0 a9 e6 3b f1 fc ee bc
       -0.020739611 -0.014012704 0.007039264 -0.029173346
000160 6a 36 b0 3c cd c5 be bc d0 e2 58 3c 3a 6f 11 bc
       0.021510322 -0.023287678 0.01323767 -0.008876616
000170 e0 c1 32 3b 80 3d c0 3a ea 80 8f 3c d2 1f c3 3c
       0.0027276203 0.0014666766 0.017517526 0.023818884
000180 68 36 af 3b 90 f3 df 3c ec 12 02 bd 60 e2 01 3b
       0.005347062 0.02733782 -0.031756327 0.0019818768
000190 6c 67 00 bd 70 41 65 3b c0 74 f1 3a 28 e8 77 bc
       -0.03134863 0.003498163 0.0018421635 -0.015131034
0001a0 2c 18 d4 3c 30 65 44 bc 84 21 42 3c b7 f0 d4 bc
       0.025890432 -0.011987016 0.011848811 -0.025993688
0001b0 88 99 14 bc cc 22 05 3d ce 37 dd bc c6 f9 b8 bc
       -0.009069808 0.032503888 -0.027004149 -0.022580039
0001c0 32 4d d3 bc 7e 23 83 bc 18 1f 82 bb f8 81 57 3c
       -0.025793646 -0.016008135 -0.003970992 0.013153546
0001d0 68 a9 3b 3c 0c af d5 3c 80 f0 17 ba b4 70 8c bc
       0.011453964 0.026084445 -0.000579603 -0.017143585
0001e0 d2 8b ca bc ec 14 80 3c 0c f6 fd bb d0 45 78 bb
       -0.024724875 0.015634976 -0.0077502783 -0.0037883408
0001f0 61 37 f0 bc b0 3d 5d 3b 1a 34 b7 bc 38 b2 a4 3c
       -0.029323282 0.0033758692 -0.022363711 0.020104513
000200 80 1a bf 3c 7a 55 5f bc 9a 36 cc 3c 18 a5 04 3c
       0.023328066 -0.013631219 0.02492838 0.008096002
000210 fc f4 6c bc e4 7b f1 3c f8 3f e1 bc c8 6e 29 3c
       -0.014462706 0.029478021 -0.027496323 0.010341354
000220 ee b5 a5 3c 30 11 f5 3b e6 db bd bc 84 a4 04 bc
       0.020228352 0.0074788556 -0.023176145 -0.008095864
000230 64 db 8d 3c 00 ad f0 b9 9a 6f dc bc 0c 03 a7 3c
       0.017316528 -0.00045905262 -0.026908685 0.020387195
000240 a0 9b 88 3b 1b e9 04 bd 54 11 2d 3c 53 b9 b8 bc
       0.0041689426 -0.03244887 0.010563213 -0.022549307
000250 4c 3d fa bc cb 9b 85 bc 24 00 bb bc d7 4f 82 bc
       -0.030546807 -0.01630964 -0.022827215 -0.015907211
000260 60 8f 07 3d 5a e8 e2 3c d0 95 41 bb 86 2a 97 3c
       0.033095717 0.027698684 -0.0029538758 0.018452894
000270 a0 49 1a bb 6a d9 25 bc 69 bd 89 bc 2c 7b 81 3c
       -0.002354242 -0.010122636 -0.01681395 0.015805803
000280 c0 07 9c ba 7e 71 b7 bc e8 95 0a 3d 48 1b b5 bc
       -0.0011904165 -0.022392984 0.033834368 -0.022107735
000290 c4 d2 f1 bc e8 95 b1 3b fa 43 00 bd 00 9c e2 3a
       -0.029519446 0.0054194815 -0.031314828 0.0017288923
0002a0 52 c1 96 3c 4c 74 bb bc 30 20 17 bb fc 9e b9 bb
       0.01840273 -0.022882603 -0.0023059957 -0.0056647044
0002b0 c0 09 98 bb e8 9d e6 3b 64 36 aa 3c e0 e2 fb 3c
       -0.004639834 0.007037867 0.020777889 0.03074783
0002c0 02 6a c6 bc 02 09 0a 3d 8c 84 7c 3c 40 69 c1 ba
       -0.02422047 0.033699997 0.015412461 -0.0014756098
0002d0 b5 c5 01 bd d4 fd ba 3c 88 de 00 bc 54 fb 5a 3c
       -0.03168269 0.022826113 -0.007865556 0.013365585
0002e0 f8 30 c6 3b 34 4d 05 3d 80 da 8e 3b 0c cc b3 3c
       0.006048318 0.03254433 0.0043595433 0.021947883
0002f0 60 cf ed 3a e8 01 9d 3c 46 06 97 bc 90 b5 01 3d
       0.0018143468 0.019165948 -0.018435609 0.031667292
000300 00 4c 11 3c a6 b7 6c bc 0c 21 d4 bb bd 49 ba bc
       0.0088682175 -0.014448082 -0.006473666 -0.02274024
000310 5c 87 ee 3c 00 ac 2d 39 0c 09 1d bc a6 21 0c bc
       0.029117279 0.0001656264 -0.0095846765 -0.008552944
000320 80 9b 66 ba 1a 70 7b bc a4 7b 80 bb 90 9b 46 3b
       -0.0008796975 -0.015346551 -0.003920989 0.0030305125
000330 7f 98 9c bc ac 7f 85 3c 36 f1 30 bc 22 45 c2 3c
       -0.019115685 0.01629623 -0.010799697 0.023714606
000340 02 f8 a1 3c 70 09 f0 3b 84 88 25 bc a0 39 dd bc
       0.01977158 0.007325344 -0.010103349 -0.027005017
000350 38 b0 9a bb a2 ba 00 3d d0 c8 92 3b bc 19 c9 bc
       -0.004720714 0.031427987 0.004479505 -0.024548404
000360 00 7a 96 3c a8 ef b8 3c 00 ae 6f 3a ac f8 77 bc
       0.018368721 0.022575215 0.00091430545 -0.015134972
000370 58 0a 92 bc 2e 88 bb bc 78 ff 82 3b 98 59 68 bc
       -0.017827198 -0.022892084 0.0039977394 -0.014181517
000380 40 20 81 3c 5e e2 e1 3c 38 d0 07 3d 14 0c a6 3c
       0.015762448 0.02757376 0.033157557 0.020269431
000390 c0 b7 9c ba 08 3d c4 3b c0 8c b6 3b 60 28 ed bb
       -0.0011956617 0.005988721 0.005570978 -0.007237479
0003a0 7a 04 0a 3d 2c 99 3e 3c c0 cb cc 3b f6 5d 0a 3d
       0.033695675 0.011633199 0.006249875 0.033781014
0003b0 fa 0f 08 3d 88 d2 6d bb 94 db 1a bc de f4 c5 3c
       0.03321836 -0.0036288816 -0.009451766 0.024164613
0003c0 68 10 bf bc bc b2 05 3d 00 05 04 bb 68 ec 92 3c
       -0.023323253 0.032641158 -0.0020144582 0.017934993
0003d0 d8 0f 73 bb 80 f4 2b ba ec db b1 3c e5 19 bb bc
       -0.00370883 -0.00065595657 0.021711312 -0.022839496
0003e0 c2 ef 3b bc b5 81 e3 bc dc 95 ec 3c 48 59 37 3c
       -0.011470737 -0.02777181 0.028880052 0.01119072
0003f0 90 28 18 bb be f0 ad bc 18 8b c4 3b 50 7a 2e bb
       -0.0023217537 -0.021232959 0.0059980266 -0.0026623197
