dl/demo/cnn_cifar10_demo.onnx (onnx, 249338 bytes, 10 tensors)

conv_1.weight f4 [6, 3, 5, 5]
00000000: 370f 913e e8d5 6d3e de91 c33e cea2 eb3e
00000010: 2b7b cc3e c243 b53d 79a8 883c 540e 513e
00000020: add4 383e 4a74 ce3e d153 8a3e cf24 873d
00000030: 0347 38bd bc41 4cbc 82c7 343e c1a9 6bbd
00000040: 0301 aa3d 0b40 14be 953c c6bd 156d d4bc
00000050: 09b6 6e3c 9cd1 66bb 690c 90bd 2b4d 4bbe
00000060: 68ac 49be 697c afbe 1bf0 99be 25f7 bdbe
00000070: 561b 20bd 4308 85bd 8688 0fbe 619f a9be
00000080: 896a 91be af08 2cbe 1e6e 293d 311d e93c
00000090: f2b3 69be 02e4 c6be f5ec 6ebe 4544 90bd
000000a0: ea37 113e b288 483d 20de 1fbe 4af7 a3be
000000b0: b8bd cb3c b4fc f43d c899 77bb 17e7 913d
000000c0: 3f3a 4dbe 59d8 19be 9c82 80bb 3c28 8abc
000000d0: e7a2 fe3c 22e3 49bc 52c3 3b3c 41cb 153e
000000e0: 6bab e4bd d949 5dbe ceed 3abd 4cc6 5a3e
000000f0: 080a 3f3e 382c bebd 3d6c 8dbe 9cf7 eabd
00000100: 828a 463d 27fd ab3e 2a56 163e bc30 91bd
00000110: 1506 29be a86c 9b3c 9478 cd3e 4e0e bd3e
00000120: b219 833d ca6a 923d 88e9 d5bd c206 b9bd
00000130: a83b e6bd e7d8 9d3d fe3e 0abd 8b67 c83c
00000140: c227 1dbe a504 70be 52da be3e 07db 4d3d
00000150: 218a 3dbe 1f9a 00be 35b9 1bbe f142 033f
00000160: f065 e7bd d7d5 cbbe 88b0 623d 572d 3d3c
00000170: 0797 f33e 739a bbbe c292 42be d2c2 7a3d
00000180: 6d7a 6b3d 38a6 f33d 00a5 8cbe edb4 f43c
00000190: 2c8b 8e3c c560 d3bb 5ea0 773e 77ec 48bd
000001a0: 3329 d6bc 7e35 b6bc 4543 6c3c c023 0c3f
000001b0: 6eaf 0ebe ab9c 50be 3871 6e3c 5416 66bd
000001c0: e463 333f 21bc 75bd 3d4a 05bf 1399 2b3e
000001d0: 141b 1e3e d920 bb3e b29d dcbe 4599 08be
000001e0: 317e 1a3e 82e2 723d 1136 1b3e ff9f 7ebe
000001f0: 31af a33d f167 51bd ca6d 4abd 92d6 723d
00000200: 6d3a f73b a3b3 80bc 0c88 21be 3074 9fbd
00000210: 7b8c 993e ffc6 8ebd a66b 3dbe 1a28 bdbd
00000220: fb14 7abd 2c29 1a3f 81f2 18be bfc9 b2be
00000230: d35c 873d 2b34 6f3d 6052 e23e 9ca6 c8be
00000240: e351 0dbe beb8 69bc 6417 e33d 7133 88bd
00000250: ec08 48be e5ed 273d 00d8 f8bc 0101 263e
00000260: fa43 a73e 8afe 0c3e 271d 293e 33cf a83c
00000270: d1dc 1f3e 9184 053e bc9a 0bbe 036d 823d
00000280: 8117 623d e15a dc3d 0c32 8dbd eddb 1ebe
00000290: e5a9 633d f6ea 31bd 1503 b3bd 6d8d 96be
000002a0: 8358 e6bd efba 7b3e e653 9bbe a609 f1be
000002b0: 1839 d0be 2974 2ebd 1dfa bd3e 7071 9dbd
000002c0: 598e ea3c e2be 85bd c856 9bbe 1ff4 98be
000002d0: ad09 c4bb bbcc 3fbc 2c71 adbd 74cb aebe
000002e0: 7bba 53be ff40 a33c 4fc6 b6bd 0fd5 75be
000002f0: bb1f 5ebe ba28 663c e918 d4bc 3244 44be
00000300: 8293 92be b777 51be 75b1 703e 8e41 0dbe
00000310: cee3 a2be e45b 3abe b1dd 7b3e 294e bf3e
00000320: 7a3e 6dbd 562a 3a3d afdf 4e3c 205b efbd
00000330: 15d7 41bc 3b57 e63d 2180 163d e384 ebbd
00000340: 1121 d0bd 14ca ffbc 7ccf 783e c285 26bd
00000350: 1597 0fbe 7c93 c3bd 32fe 7c3e 65ac 5f3d
00000360: 25e2 90bd 0048 05be e07b 853d 4511 863e
00000370: c9e6 88bd 7b69 61be a176 d1bd 520b 623e
00000380: 53af 073f 2c78 97be a55c 78be 7806 0cbe
00000390: a3e3 5cbe ca78 cbbd 89ce a3be c1c8 d8bd
000003a0: a036 0abe 1903 6abe 298c 1fbe 8961 5bbe
000003b0: d6b7 b3bd 2288 9e3c 7ae8 493d e44b 94bd
000003c0: 6d91 b1be e6ab a3be fae2 41be a1ad ddbd
000003d0: 6b42 d6bd 307b 58bd 23cf 5ebd 7ca0 a3bd
000003e0: 480d 05be be04 f7bd 1d6d 84bc 57d6 fcbd
000003f0: 55d7 cabd 0909 7b3c 0e16 49be 0c71 013d
0.2833192 0.2322613 0.38197225 0.46022648 0.3993772 0.088508144 0.016681897 0.20415622
0.1804988 0.40323097 0.27017072 0.065988176 -0.044989597 -0.012466844 0.17654231 -0.057534937
0.08300974 -0.14477555 -0.09679524 -0.02593092 0.014569768 -0.0035220152 -0.07033617 -0.19853656
-0.19694674 -0.34274605 -0.30065998 -0.3710262 -0.03908857 -0.064957164 -0.14016923 -0.3312941
-0.28401592 -0.16800188 0.04136478 0.028456302 -0.2282255 -0.3884583 -0.2333258 -0.070442714
0.14181486 0.048958488 -0.15612078 -0.32024604 0.024870738 0.11962262 -0.003778087 0.07124155
-0.2004175 -0.15023936 -0.00392182 -0.016864888 0.031083537 -0.012322219 0.011460142 0.14628316
-0.11165508 -0.21610202 -0.045636944 0.21364707 0.1865617 -0.09285778 -0.27621642 -0.11473009
0.048471935 0.33591577 0.14681306 -0.070893735 -0.16506226 0.01897271 0.40131056 0.36924976
0.06401385 0.07149275 -0.10444933 -0.09034492 -0.11241847 0.077073865 -0.03375148 0.024463436
-0.15347198 -0.23439272 0.3727594 0.05025771 -0.18509723 -0.12558793 -0.1520737 0.5127402
-0.1129874 -0.39811584 0.055344135 0.011546454 0.47576162 -0.36641273 -0.19001296 0.06122095
0.0574898 0.11896938 -0.27469635 0.029871428 0.017400347 -0.006450745 0.24182269 -0.049053635
-0.026142692 -0.022242304 0.014420335 0.5474205 -0.13934109 -0.20372264 0.014553361 -0.056173638
0.70074296 -0.059993867 -0.52066404 0.16757612 0.15440017 0.36548498 -0.43089062 -0.13339718
0.150872 0.059298046 0.15157343 -0.24865721 0.079923995 -0.051124517 -0.04942111 0.05928666
0.0075448067 -0.015710657 -0.15774554 -0.07785833 0.2998999 -0.06971549 -0.18498096 -0.092361644
-0.061055165 0.60219073 -0.14936258 -0.34919545 0.06609502 0.05839936 0.44203472 -0.39189613
-0.13800769 -0.014265237 0.11088446 -0.06650437 -0.19534653 0.04099836 -0.030376434 0.1621132
0.3266905 0.13768974 0.16515027 0.020606613 0.15611579 0.13038851 -0.13633245 0.063684486
0.055198196 0.10759521 -0.06894311 -0.15513583 0.055581946 -0.043436967 -0.08740822 -0.29404774
-0.11247351 0.24583028 -0.30337447 -0.47077674 -0.4066856 -0.042591248 0.37104884 -0.07687652
0.02863233 -0.06530549 -0.30339646 -0.2987375 -0.0059825988 -0.011706526 -0.084688514 -0.34139597
-0.20676605 0.019928453 -0.08924543 -0.24007057 -0.21691792 0.014047796 -0.025890784 -0.1916664
-0.28628165 -0.20455824 0.23505194 -0.13794538 -0.31814426 -0.18199116 0.24596287 0.3736432
-0.05792091 0.04545053 0.0126265725 -0.116873026 -0.011831065 0.11247107 0.036743287 -0.114999555
-0.10162557 -0.031224288 0.24297899 -0.040654905 -0.14022477 -0.09549615 0.24706343 0.054607768
-0.07074384 -0.13015747 0.06517768 0.2618505 -0.06684644 -0.22012894 -0.10227705 0.22074631
0.530019 -0.2958387 -0.24254091 -0.13674343 -0.21571212 -0.09935148 -0.3199351 -0.10585166
-0.134974 -0.22852744 -0.1558081 -0.21423925 -0.08775298 0.019352023 0.049293973 -0.072410375
-0.34681264 -0.31967086 -0.18934241 -0.10824133 -0.10461887 -0.052851856 -0.05439676 -0.07989594
-0.12993348 -0.120614514 -0.01616531 -0.123455696 -0.099043526 0.015321978 -0.1963732 0.03160195

conv_1.bias f4 [6]
00000000: 9ca8 36be 36bc bdbc 381f b4be 28eb 063e
00000010: 1ffb ecbe 20f3 f23d
-0.17837757 -0.023161035 -0.35180068 0.13175642 -0.4628534 0.11862779

conv_2.weight f4 [16, 6, 5, 5]
00000000: 59cd eebc 89dd 08bc c4a2 a33d a019 363d
00000010: eb83 14bd 3250 573d 1990 3abd 54cb 12bc
00000020: 2707 b23c 5486 273d ce5b 01bd bc37 6e3d
00000030: 30da d5bc c3ee f239 16cd 92bd 2a1e f8bc
00000040: 6c1a 01bd 2f20 c7bd 3a25 e8bd 3203 1fbd
00000050: 0fa4 963b 3983 8c3d 0957 913c 4776 5fbd
00000060: fecb 97bd 22c2 5c3c 9b12 8b3c f9ee 5e3c
00000070: 33cd f7b9 33d1 8a3b 49b1 993d 4982 df3c
00000080: f759 e1bc b48b b039 9880 a1bd 70c7 a83d
00000090: d85e 893d 8d7b 2cbd ce44 f6bd d725 f0bc
000000a0: a3a8 3fbc 3db9 933c 50ec d53c fddd d13c
000000b0: c358 ef3c e2a9 c63d f82f 003e 2278 383d
000000c0: 9a88 583c 6e3c 81bd 9eea 76bc 4ce3 abbd
000000d0: 3758 cc3a 5c22 0c3d 44a6 e0bd 1f38 7ebc
000000e0: 851b c5bc d4f5 0fbe b09d 79bd 2bbf c0bd
000000f0: 5c3e b2bd 6b17 73bd 792f e2bd 2313 21be
00000100: bab2 acbd 9691 19bd c042 c1bd 7368 b6bd
00000110: 9bb8 debd 167b 05be 0819 cdbd 4188 40bc
00000120: 932a acbd 3d3f 2cbe a70f 21be 4653 91bc
00000130: 4d39 353d 297f 133d 1bc8 263d 3430 743d
00000140: 6c41 353c 5be9 473d bd10 b73c 8cf5 debd
00000150: c668 9a3c 7d8e 803c 5c9d b3bd cc20 acbd
00000160: 5815 c3bd 6f25 9239 93bf f1bc 8b48 eabd
00000170: 7bb8 ebbd ee3e 343d 4ba9 543b 30c1 f73c
00000180: 481e 2e3d 70f2 93bd 0a8d 98bd 8b07 963d
00000190: 02da cbbd d508 80bd b536 82bd dec3 debd
000001a0: f70b 2fbb 0bc1 edbd 299b c2bd b960 99bd
000001b0: 453e 8abd 9e85 d1bb d81d 26be 6d10 efbc
000001c0: 6fad aebd 7480 c7bd def5 15bd c366 82bd
000001d0: cfdc 863c 91fe 9bbd bbae 96bd 6461 6dbd
000001e0: a21f a93d 0c29 5abd 7c91 b43d cbdb 6c3d
000001f0: ee51 9c3d 1b1a 583e 368f d33d 0b85 4a3c
00000200: 3916 083d d06f febd 1693 663e caf8 b43d
00000210: 8e6d 0bbd 8ae1 9dbd 7bc6 31bd db56 363e
00000220: 19b2 d73d 647f 23bd 84b3 963d 631d 49bd
00000230: 452c 4c3e a2b3 8d3d f342 80bc 355b 7b3d
00000240: c2bd 693c 351b 6b3e 2a4b 653d 1c59 283c
00000250: a599 9f3b 5d0c 313d f8a7 733d cf44 7d3c
00000260: fd70 b93d 02fc 333e a3bb 833d 23d1 da3c
00000270: c61e 06bd 48b4 5ebd 6df7 1c3e 332c 323d
00000280: e0bf 0c3e acf2 3fbc 5ba1 1fbd 3cc3 e83c
00000290: 6e4c 06be ae72 e13d 2471 1e3d 23ef c3bd
000002a0: 3192 b43d f0e0 a7bc 5fef abbc 5ec5 c03d
000002b0: 349e a23d b59a f8bd fd44 8bbd 4aec 9abd
000002c0: ab5a 8bbd b40b c6bd eebc 8bbc 1241 2dbd
000002d0: e0ac af3d 6ebb efbd 2ce0 4bbd a139 8ebc
000002e0: 3c8f 5b3d d07d 673e 150e 7dbe 7f51 483e
000002f0: cbbd 9fbd 2ed1 18bc 62ae 843e e125 0cbe
00000300: 2f84 4c3e bda2 8b3d cf78 da3d 75ee 763e
00000310: 7b80 de3d 4dd5 153e 1b7f dd3c 82f0 313e
00000320: afc1 153b 01dd b43c 226f 6abd a933 0fbe
00000330: 9662 13be 0818 1c3e a29d 4a3d 5cce 67bd
00000340: db82 d8bd c27e 0dbe 09ac a33d a452 583e
00000350: ee09 1abe 96f4 80bd 0e69 2cbe b73e b03c
00000360: ce66 e63d ba3b 0ebd 87e0 4ebe f86a 7dbe
00000370: a901 ac3d a8c3 19bd d31d a73b 1c4b b3ba
00000380: a870 44be b589 edbd 9b61 1abe 56c6 3ebe
00000390: 699e adbd 80d9 a7bd bfa3 f7bd 7fce d7bd
000003a0: ec8d 3dbe 13ad fbbd 3d8d ebbd bd41 f0bc
000003b0: 73b0 a8bd 0542 43be e867 8cbd f6dd 0abd
000003c0: 3688 04be 19cb 11bd fd9d 91bd 81b6 3ebe
000003d0: dc78 84bd 8b04 24bd 34dc 03be eae5 f7bd
000003e0: 95e5 24be ac92 a7bd 70fc afbd 62a5 80bc
000003f0: a953 2bbd f4dd b5bb 85ad 563c a84f ef3d
-0.029150652 -0.008353599 0.079900295 0.04445803 -0.03625862 0.052566715 -0.04554758 -0.00895961
0.021731926 0.04089959 -0.031581692 0.05815862 -0.026105016 0.00046335728 -0.07168023 -0.03028782
-0.03151934 -0.097229354 -0.113352254 -0.038821407 0.004597194 0.06860966 0.017741697 -0.054556157
-0.07411955 0.013474019 0.016976645 0.01360678 -0.00047264397 0.0042363643 0.075045176 0.027283804
-0.027508719 0.00033673423 -0.078858554 0.08241165 0.06707543 -0.042110015 -0.12024842 -0.029314918
-0.011697921 0.018032664 0.02611366 0.025618548 0.02921713 0.09700371 0.12518299 0.045036443
0.013216162 -0.06310354 -0.0150705855 -0.08392963 0.0015590255 0.034212455 -0.10969213 -0.01551631
-0.024060974 -0.1405862 -0.0609414 -0.094114624 -0.087033 -0.059348505 -0.11044211 -0.15729956
-0.08432527 -0.037492357 -0.0943656 -0.08906641 -0.108750544 -0.13035235 -0.1001454 -0.011751235
-0.08406558 -0.16820998 -0.15728627 -0.017739903 0.0442441 0.03600994 0.04071818 0.059616283
0.011062961 0.04880653 0.022346849 -0.10886678 0.018848788 0.015692944 -0.08770248 -0.08404693
-0.09525555 0.0002787518 -0.029510295 -0.11439618 -0.11509796 0.044005327 0.003244954 0.030243486
0.042509347 -0.07223976 -0.07448776 0.073256575 -0.09953691 -0.062516846 -0.06358091 -0.108772025
-0.0026710012 -0.11609086 -0.09502251 -0.074891515 -0.06750158 -0.0063941022 -0.16222322 -0.029182637
-0.085291736 -0.09741297 -0.03661143 -0.063672565 0.016462712 -0.07616914 -0.07357546 -0.057954207
0.082579866 -0.0532618 0.088168114 0.0578268 0.07632814 0.21103708 0.1033005 0.0123608215
0.03322432 -0.1242367 0.22517046 0.08836515 -0.034040026 -0.07709034 -0.043402176 0.1780657
0.10532016 -0.03991641 0.07358459 -0.04910029 0.19938762 0.06919028 -0.015656924 0.06136628
0.014266433 0.22959597 0.055979885 0.010275152 0.004870611 0.04322468 0.05948636 0.0154583
0.09054754 0.17576602 0.06432273 0.026711052 -0.03274419 -0.05437115 0.1532876 0.043499183
0.1374507 -0.011715572 -0.03897224 0.028413408 -0.13115093 0.110082015 0.038682118 -0.09567096
0.08816946 -0.020493 -0.020988164 0.09412645 0.07940331 -0.12138883 -0.06800268 -0.075646
-0.06804403 -0.09670201 -0.017057862 -0.042298384 0.08577895 -0.11705671 -0.049774334 -0.017361464
0.053603396 0.22606587 -0.24712403 0.19562338 -0.07799872 -0.009327216 0.25914294 -0.13686325
0.19972299 0.06818149 0.10667574 0.24114402 0.108643495 0.14632149 0.027038148 0.17376903
0.002285104 0.02207804 -0.05723489 -0.1398455 -0.14393076 0.15243542 0.049466737 -0.056593284
-0.10571834 -0.13817886 0.079917975 0.21125275 -0.1504285 -0.06296651 -0.1683695 0.02151428
0.11250077 -0.03472493 -0.20202838 -0.24747837 0.08398754 -0.037540108 0.005099991 -0.0013679
-0.191836 -0.11598531 -0.15076296 -0.18630347 -0.0847748 -0.08195782 -0.12091779 -0.10537433
-0.1851117 -0.12288871 -0.115015484 -0.029328221 -0.0823678 -0.19068153 -0.06855756 -0.033903085
-0.12942585 -0.03559408 -0.07110212 -0.18624307 -0.064683646 -0.040043395 -0.1287697 -0.121043995
-0.16103204 -0.08182272 -0.085930705 -0.01570386 -0.04182783 -0.0055501405 0.013102894 0.11685115

conv_2.bias f4 [16]
00000000: 0ef6 833e a5fc af3e 16dd 09bf e8b9 5dbe
00000010: 94a7 833e a593 0dbf 84d4 903f 925f b23e
00000020: b0ca e2be dc8d 6bbd 2c13 723d 26d4 f3bd
00000030: 0a93 49be 7a37 c53d fcf9 97be 34f2 963e
0.25773662 0.3437244 -0.53852975 -0.21652949 0.2571379 -0.5530341 1.1314855 0.3483854
-0.44295263 -0.057508335 0.059100315 -0.119056985 -0.19684997 0.09629722 -0.2968291 0.2948166

fc_1.weight f4 [120, 400]
00000000: 06c3 6abd 6e1d 89bc 9797 0dbb 554b 07bc
00000010: c91b 463d 9caa 96bb 4a7d df3c e5a2 f839
00000020: f733 3cbc e9ed 773d 6106 7d3d 805d 36bc
00000030: 66c5 d13c ec20 843b 3b1d dbba 3d9b 863d
00000040: 99b0 c13b 09b3 013d 6cae 323d 008b 843d
00000050: 4f74 02bd 885f 813d 2b1b 543d 6db8 983d
00000060: 2a27 f13d 967b db3c 4696 4b3c e8ee 5f3d
00000070: da66 963d cb11 133e 0d17 4f3d 770f 113d
00000080: 4a14 903a d5a6 eb3c e3de 893d 3905 5dbd
00000090: 5be8 e6bd 1341 e0bc 8f15 49bc b054 2d3d
000000a0: 357e 9abd 2d39 6bbd cb2d ccbb 4b20 43bc
000000b0: 9131 253c 89f5 a23c 982d ba3d 1c7b b23c
000000c0: f4c6 133d 150a 233d 643d adbc 1b65 8fbd
000000d0: 2808 6a3d 64ea 9d3b da49 1abc c60d dbbc
000000e0: d032 80bc e493 a6bb 6b2b 82bd b477 a9bd
000000f0: ce6b 45bc f5e0 13bd de5d 47bd 7906 14bd
00000100: ab5c 96bd f1fd c9bd 36a8 a3bd a7f7 17bd
00000110: 438a c4bc 34ac 05be 9e17 23bd 0040 00be
00000120: df0b efbd 070c ffbd df01 3bbe a3c9 ddbc
00000130: 0917 4bbd 40f1 7e3c d6d9 f93c db6e 4f3d
00000140: a093 d1bc 9c77 473d da91 3a3d 3a09 4b3d
00000150: 5169 593c 59a9 60bc ef90 aa3c a1a9 943b
00000160: 9377 bf3c c094 8e3b 0d00 26bd 92e7 e8bc
00000170: 8320 343d 4bf9 a9bc 382b b7bc c61d 99bd
00000180: b295 ee3c 3640 40bd 56e1 80bd 8b5d 99bd
00000190: 53fa 4e3d 5a61 c0bc a512 163d f87d 57bd
000001a0: de04 7cbd b688 a7bc 8438 7dbc b0c4 a63c
000001b0: 438f 9f3b 42f5 2cbd d661 85bd c9fd bd3a
000001c0: 3d36 82bd f37a 3dbd f518 5ebd afc4 b7bd
000001d0: c538 81bd 1447 8b3d 3156 8f3d 7cbf f8bc
000001e0: 7b40 a7bc 8c0e 813c a5c8 053c e7ac 1c3c
000001f0: 7451 ac3d 522f 5abd 37e8 0b3d 6092 9c3d
00000200: a049 833d a56d e73c df49 54bd 9eed 993d
00000210: 38e0 203e 9aea f23d 206e 1abc f26e 1dbd
00000220: 0136 933d bbe2 ec3d eaac a33b e854 05be
00000230: 8698 02be 8c0f 0bbc 1b84 63bd 3546 f8bd
00000240: 14ba 32be ec87 97bd a4f0 00be c5b5 28be
00000250: 1360 f1bd f3f1 13be 7a42 eb3d b088 ce3c
00000260: 9a3c 1f3d 8da2 37bd f29b 00bd 7d3b 413d
00000270: 228c 513d e005 233c 2b1d 93bd 9384 48bc
00000280: 0314 c53c d838 773b 5aff ffbc 7b84 14bc
00000290: 0523 213d b476 703c fa52 083d 9e39 b43c
000002a0: 2a36 f33c 9e0c e8bc 7a7a a83d a795 5c3d
000002b0: 3fab 403d 8a74 6bbd 066b 193d 0380 57bd
000002c0: c892 51bb 6884 9f3d 8fba 043a 265e 5ebd
000002d0: 44e0 8cbb b9c6 753a 3c2e df3c f624 97b9
000002e0: 1f2e 5ebc a840 1abd 47ec 4dbd fa0a 2ebd
000002f0: de0f bf3b 6615 343c a20a 1d3d d637 ab3c
00000300: a95f 45bc 0680 873c 86c5 cdbc 84a7 f23d
00000310: dfda b93d 3a20 843d dbfd 0e3d db36 cf3c
00000320: bebc b73c 64a4 d8bc 06d7 12bd c452 90bd
00000330: 0db6 093c 7c63 323d 2b1b a1bb 47c4 8f3d
00000340: f5f8 183d 601e 3e3c 6765 41bc a907 2f3d
00000350: 1178 c1bc 23a0 4a3d b50a dbbc 828c e2bc
00000360: c23f 6dbd 89e0 acbc 3191 14bc 5de8 bebd
00000370: b4de 14bd fcd1 f43c 1170 363d 873c 5d3b
00000380: 03ed c3bb 9141 323d 465a e63d 58b3 063e
00000390: 48b1 a5bc 6329 9c3c 79ef 973d 3a1f 8d3c
000003a0: bdde 163d 9af2 4a3c fa96 793c ff9b ecbb
000003b0: c9cf aabc 4b2f 0e3c 59b4 053d 73b0 093d
000003c0: ae3d 8d3c 4936 f53c c59b 743d d41c 583d
000003d0: c935 0c3d f246 c13d b955 c03d 8d45 493d
000003e0: ee29 493d 513b 2c3c 4edd 4e3d 94e9 4b3d
000003f0: 1c33 28bc 5de0 b8bc 877c ea3c 29d0 2abc
-0.057314895 -0.016737666 -0.0021605247 -0.008257707 0.04836634 -0.004597975 0.027281422 0.00047423612
-0.011486999 0.060529623 0.06177366 -0.011130691 0.025606822 0.004032245 -0.0016717085 0.06572578
0.0059109447 0.03166488 0.043623373 0.06471825 -0.0318492 0.06317049 0.051783722 0.074570514
0.11775048 0.026792329 0.012425965 0.054671198 0.07343836 0.14362256 0.050559092 0.03541514
0.0010992375 0.028766075 0.067319654 -0.05396006 -0.11274787 -0.02737478 -0.012273206 0.042317092
-0.07543603 -0.057427574 -0.006231045 -0.011909555 0.010082618 0.01989247 0.090907276 0.021787219
0.03607841 0.039804537 -0.021147437 -0.07001706 0.057136685 0.0048192013 -0.009417022 -0.026739966
-0.01564923 -0.005083548 -0.063559376 -0.08274785 -0.012049628 -0.036103208 -0.048673503 -0.036138985
-0.07341894 -0.098628886 -0.07991068 -0.037101414 -0.02399171 -0.13053972 -0.039817445 -0.12524414
-0.11672186 -0.12453466 -0.18262433 -0.027073687 -0.049582515 0.015560448 0.03049938 0.05064283
-0.025583088 0.048698053 0.04554925 0.049569346 0.013269738 -0.013712251 0.020821063 0.004536823
0.023372447 0.0043512285 -0.040527392 -0.028430734 0.043976318 -0.020748755 -0.022359475 -0.07476382
0.029124115 -0.046936236 -0.062929794 -0.07488545 0.050531697 -0.02348392 0.036638875 -0.052610368
-0.06152808 -0.020450931 -0.015455369 0.02035746 0.004869373 -0.042226084 -0.06512801 0.001449519
-0.063580014 -0.04625983 -0.05422302 -0.08973061 -0.06309656 0.068006665 0.069988616 -0.030364744
-0.020416489 0.015754007 0.008165513 0.0095627075 0.084139735 -0.053267784 0.034157004 0.07645106
0.06410527 0.028250525 -0.05182826 0.07516025 0.15710533 0.11861153 -0.00942567 -0.038435884
0.07188035 0.11566683 0.004994978 -0.1302067 -0.12753496 -0.008487593 -0.055545907 -0.12122766
-0.17453796 -0.07398972 -0.12591797 -0.1647559 -0.11785903 -0.14447765 0.11487289 0.025211662
0.038876154 -0.044832755 -0.03139872 0.047175873 0.05115903 0.009950131 -0.07183298 -0.012238639
0.024057394 0.003772309 -0.03124969 -0.009064789 0.039340038 0.0146767385 0.033282258 0.02200013
0.029688913 -0.028326329 0.082264856 0.053853657 0.047038313 -0.057484187 0.03745558 -0.052612316
-0.0031978358 0.07788926 0.00050632 -0.054289006 -0.0042991955 0.000937562 0.027243726 -0.00028828502
-0.013560801 -0.037659317 -0.05027416 -0.042490937 0.005830749 0.01099143 0.03834022 0.020900648
-0.012046733 0.016540539 -0.0251186 0.11848357 0.090749495 0.06451459 0.034910064 0.025294712
0.022428866 -0.026445575 -0.035849594 -0.07047036 0.008405221 0.043551907 -0.0049165688 0.07019859
0.0373468 0.011603922 -0.011803961 0.042731915 -0.023616822 0.049469125 -0.026738504 -0.02765489
-0.057922132 -0.02110316 -0.009067819 -0.093216635 -0.0363452 0.029885285 0.04454047 0.0033758
-0.0059791817 0.04351956 0.11247687 0.13154352 -0.020226136 0.019062703 0.07418723 0.017226804
0.036833514 0.012386942 0.0152337495 -0.0072207446 -0.020851033 0.008678268 0.032642696 0.03361554
0.017241325 0.029933112 0.059718866 0.052761868 0.03423098 0.0943736 0.0939135 0.049138594
0.049112253 0.010512189 0.05050402 0.049783304 -0.010266092 -0.022567922 0.028623832 -0.010425606

fc_1.bias f4 [120]
00000000: 3a7d 2d3e 7828 113d ee55 f5bc 4f14 51be
00000010: 17b2 a83d 73ea adbc e1bf 59bd 14b8 6a3d
00000020: c469 133e 04c4 403c e198 c53b 7558 86ba
00000030: 85cc b43c 9878 013e c5f5 d0bd 3509 993d
00000040: 0022 a5bd 0996 3abd bbd6 85bd b54a f83b
00000050: 00bc c7bc e6a8 cb3c 5aa4 10be 6af4 e83d
00000060: aa36 273d 0d68 2d3e 27ab 0b3e e5e7 8a3d
00000070: d403 e6bb d96a 6c3d 57e0 be3c faae 443e
00000080: 2174 19bd aa54 443d aaab 48be 4a37 57bd
00000090: 273e b13c b5ba d13d 372a 4cbd c938 1fbe
000000a0: b3d3 18bd ac43 103e e21d 013d 6635 f93d
000000b0: f4c2 35be 920d ac3d bc6b 1bbd 8a9b 273d
000000c0: d85c 313d 3460 0a3e 0f82 aebb d808 603d
000000d0: cf6b 4f3d 9767 72bc f4ce 1c3e 5baa 19be
000000e0: a6b7 b43c efc4 e33d cec9 b43c 00e5 0b3d
000000f0: f33a d93d 4b32 063b c008 02bc dba4 eebb
00000100: 0f93 e53b adc7 89bb 1ee8 483c c663 1fbe
00000110: fd03 f23a ca23 ac3d 6314 1a3e 9cd8 a13d
00000120: dec9 4c3e 2a5b e83c d85c 6c3e 9a94 923d
00000130: c12e 98bd e6f2 d8bc 331d 2c3c 602c b73d
00000140: aa6b 56bd 8fcc 0b3e 482e d8bd 9b05 38bc
00000150: dd98 d9bc 7873 f1bc 691a 2bbd cc94 133e
00000160: 7712 833d 5a1c afbb d0d1 25bd 491d a83c
00000170: d4a1 88bc 67e4 f6bd 8d9d 233d ff82 88bc
00000180: 973d 2bbe 5c0d 113d 0172 35bd 043a 1bbd
00000190: 7022 08bd 6e23 83bd d8b5 293d f3ca f3bb
000001a0: 45ba 4bbd a12b af3b 6fa8 eb3b 7dba f03c
000001b0: e45b 2ebd 7d40 a23d 0059 8c3c d7ca 7b3e
000001c0: 7b3b efbb 36a9 19bd 9c95 d73d 1bba b13d
000001d0: 2789 193e ebe6 b73c 1775 0f3e aad2 c23d
0.16942301 0.035438985 -0.029948201 -0.20417903 0.08237093 -0.021229958 -0.053161506 0.057304457
0.14395815 0.011765484 0.0060301875 -0.0010249751 0.022070179 0.12643659 -0.10203127 0.07472459
-0.080631256 -0.04555324 -0.06535097 0.007577265 -0.024381638 0.02486081 -0.14125195 0.11374743
0.040823616 0.16934223 0.13639508 0.067825116 -0.0070194993 0.057719085 0.023300333 0.19207373
-0.037464265 0.047932304 -0.19596735 -0.052542962 0.021636082 0.1024069 -0.049844947 -0.15549006
-0.037311267 0.14088315 0.03152264 0.12168388 -0.1775015 0.08401026 -0.03794454 0.040919818
0.043301433 0.13513261 -0.005325563 0.054695934 0.050639924 -0.014795206 0.15313321 -0.15006392
0.022060227 0.111215465 0.022068884 0.03415394 0.10606947 0.0020476754 -0.0079366565 -0.007282836
0.007006056 -0.0042047114 0.012262372 -0.15565404 0.0018464323 0.08405264 0.1504684 0.07902643
0.19998881 0.028363783 0.23082292 0.0715725 -0.074307926 -0.02648301 0.0105050085 0.08944011
-0.05234877 0.13652252 -0.105557024 -0.011231805 -0.026562149 -0.029474005 -0.041773234 0.1441223
0.06400006 -0.005343956 -0.040483296 0.020521777 -0.016678728 -0.12055283 0.039945174 -0.016664026
-0.16722713 0.03541313 -0.044298176 -0.037897125 -0.033235967 -0.06403242 0.041433185 -0.007439965
-0.049738187 0.005345777 0.0071917097 0.0293858 -0.042568102 0.079224564 0.017132282 0.24589096
-0.007300792 -0.037514888 0.105265826 0.08678075 0.14993726 0.022448977 0.1400951 0.09512837

fc_2.weight f4 [84, 120]
00000000: 5d82 6d3d ca4e 48bc c112 91bd 9c7c 32bd
00000010: 1340 9cbd a725 d3bd 3b02 4f3d e0bd c2bc
00000020: ee45 d0bd 8d0f 943d 2d47 87bd 6350 a0bd
00000030: 3ec2 cfbd 9b36 0f3d e499 1abe 96d5 323c
00000040: 0483 97bd a5e5 a13d 50be 09bd 6ce5 1f3d
00000050: ada0 3b3c 9bff 98bd f198 1c3d 1ba0 573c
00000060: 0d04 4dbd d7bd a6bd 1ec0 0b3d 0375 d2bd
00000070: a7d3 3dbd 5a7f 43bb ffba a2bc f037 2f3e
00000080: 2ede abbb 3a6e 06bd 6827 da3c 3edd bdbc
00000090: 3acd 613c c0ba 65bd 19af 163d dacd bf3b
000000a0: e255 72bd ef9a 60bd f4a1 b63d 8af4 8abd
000000b0: 6dba b43c 5ecc 91bc 9f1c 88bd 5f41 783d
000000c0: 268a c5bd a0c0 cc3d f2be 88bb 7959 923d
000000d0: 3b7b 2a3d f149 9b3d 24f6 74bd 2fa8 b53c
000000e0: 9bf9 b6bc 0c2c 84bd 0888 00bc 5c45 223d
000000f0: a741 a83d 6b89 fdbc d1e9 e83c 445d 87bd
00000100: 5e44 fe3d 828c 8e3d 3cc7 45bd 7840 623d
00000110: 3c82 273d c55a b63c eed9 85bd 0e2d ffbc
00000120: cd51 673d 73bc a63c 8566 ef3d 653e 3ebd
00000130: 1c22 3a3d 7033 6a3b c7a6 1fbe d2fe ff3c
00000140: e8dd 12bd a7ad 1dbd 101e 82bd 6c14 e43d
00000150: 1ab4 87bd e56a dc3c cc9f 54bd 40e4 4e3c
00000160: 0c01 db3d 6252 b73d 0eaa 12bd ff00 4abc
00000170: 8b33 8abb 63af 1d3d 230d 71bd 74a4 abbd
00000180: 6950 97bd 192c 50bd a0ea fe3d 9bd3 98bc
00000190: b04d 7c3c 257d e23b d5fa 173d 5c8d 623c
000001a0: 322c 6cbd b75f d7bd 4ea7 cbbd 1a69 88bd
000001b0: 7798 643c badb e6bc 4295 ff3c 08b4 073e
000001c0: c882 7dbd fc2b c53a 635e 9cbd 3007 363c
000001d0: 32d2 b13d 4b19 acbb 11f6 0cbd a349 6bbd
000001e0: 4e38 e0bd 938f d23d 4493 93bd b603 cb3d
000001f0: a195 7c3d 4beb 2fbd f02d 2b3c 28fe 3e3d
00000200: ef8d 7fbd fd1c 2ebd 5b63 05bd 87d0 ffbc
00000210: 1fba 00bd d771 61bd 5f9b 3e3d 23fb 77bd
00000220: da27 843c 99cf 4d3d 10f9 bb3d 7e53 473d
00000230: f8e4 203e 0832 31bc 5825 723c 1c77 6ebc
00000240: 23fc 27be 3832 27bc 05c1 013d 3a4c 92bd
00000250: c4d7 71bd 776d e63c 0b49 eb3d 4b9e f0bd
00000260: 5185 d13a aa00 8f3d 4665 033d 46d8 a43c
00000270: 4437 823d 2bee 303d 9ef3 d3bd 1c88 23bd
00000280: ea2d 79bb 1ec9 43bc 37b9 c53d 6cff 523c
00000290: 9be7 3c3d be2f 01be 2c22 fbbc 3d82 71ba
000002a0: 8ec8 643c c318 7bbd 0459 253d aa56 c9bd
000002b0: 1e9f 6e3d fda9 31bc 6093 973d dafc 0a3e
000002c0: 5978 963c a2bc b4bc a560 71bd 9abb 063c
000002d0: 5203 5c3d f7b5 33bc e9c6 6bbd 803a 923d
000002e0: c72f 8bbd 76a9 69bd b546 54bd ba73 b3bd
000002f0: 1758 053d de3e a03d 42f7 5cbd 8061 68bd
00000300: 4782 e8bd 97b1 99bd 9316 50bd 6bab d23c
00000310: 00d2 98bd 8f59 f2bc 4683 973d 33c3 1fbd
00000320: 2b18 da3d 3729 8d3d facd bebd 4180 073e
00000330: 85e5 5e3d 8765 1bbd 2b69 463c 60b7 753c
00000340: 8d7d 1b3e 9d45 cfbd 72b9 933d 9830 8cbc
00000350: 55c6 02bd d0fa 89bc 71d2 d2bc 8cdd 97bd
00000360: 561d 0ebb b02c 843d 340e d53d f78c e93d
00000370: 4a9d 87bd bcc0 69bd 11b3 9b3c 2f50 c5bd
00000380: 7a42 d9bb 1621 70bd fbd7 d03d b7b0 913d
00000390: 5ecd 733b 4637 8dbd 4441 433d 25aa fbbd
000003a0: dd00 cb3d 1983 24bc 768b 6ebd d33b 13be
000003b0: f138 d4bd bc71 753d e291 cabd 5bbb 213d
000003c0: 6db5 98bd 1049 413d acaa 543c f927 583c
000003d0: fb4f 4b3d c793 233d aea0 fc3c d2f4 833c
000003e0: f50d 2dbd dc17 29bc a393 8ebd 1e0c 21bd
000003f0: e549 37bd 0fad 69bd b433 883b 4682 01bd
0.057985652 -0.012225816 -0.07083655 -0.043575868 -0.07629409 -0.10309916 0.050539237 -0.02377218
-0.10169588 0.072295286 -0.066053726 -0.078278325 -0.10144471 0.034964185 -0.15097767 0.010915181
-0.07398036 0.07905129 -0.03362876 0.039037153 0.011451882 -0.07470628 0.038231794 0.013160731
-0.05005269 -0.08141678 0.034118764 -0.102762245 -0.046344426 -0.0029830546 -0.019864557 0.17111182
-0.0052449917 -0.032819964 0.026630118 -0.023176786 0.01378184 -0.0560863 0.03678808 0.005853397
-0.059163935 -0.054835256 0.08917609 -0.067849234 0.022061551 -0.017797645 -0.06646084 0.060609218
-0.0964549 0.09997678 -0.004173153 0.07145972 0.041621428 0.075824626 -0.05980505 0.022174923
-0.022335818 -0.06453714 -0.007844932 0.039616928 0.08215647 -0.030949315 0.028431805 -0.06609586
0.12415384 0.069603935 -0.048285708 0.055237263 0.040895686 0.02226008 -0.065357074 -0.031149413
0.056474496 0.020353531 0.11689476 -0.046446223 0.045442685 0.0035736226 -0.15590964 0.031249437
-0.035856158 -0.038495686 -0.0635339 0.11136708 -0.066261485 0.02690644 -0.051910207 0.012627661
0.10693559 0.0895126 -0.035806708 -0.012329339 -0.00421757 0.03849734 -0.05885042 -0.08380976
-0.07388384 -0.050823305 0.12447095 -0.018655589 0.0153993815 0.006911891 0.037104446 0.013827648
-0.057659335 -0.10516303 -0.0994402 -0.066606715 0.013952366 -0.028180946 0.031199101 0.1325227
-0.0618923 0.0015043016 -0.0763519 0.011110112 0.0868267 -0.0052520386 -0.034414355 -0.057443272
-0.10948239 0.10281291 -0.07205823 0.09912817 0.061666135 -0.042949002 0.010447964 0.0466291
-0.062391218 -0.042508114 -0.032565456 -0.031227363 -0.0314275 -0.055040207 0.046534892 -0.060542237
0.016132284 0.05024681 0.09178364 0.04866361 0.15712345 -0.010815151 0.014779411 -0.014554765
-0.16404776 -0.010204844 0.03167822 -0.07143445 -0.05904366 0.028128369 0.11488541 -0.11748942
0.0015985166 0.069825485 0.032079004 0.020122658 0.06358197 0.043195885 -0.10349201 -0.039924726
-0.0038021752 -0.011949806 0.096544676 0.01287828 0.046119314 -0.12615868 -0.030655943 -0.00092128274
0.013963832 -0.06130291 0.040368095 -0.09830983 0.058257215 -0.010843751 0.074011564 0.13573018
0.018367933 -0.022062603 -0.058930058 0.008223439 0.053714104 -0.010968677 -0.057562742 0.07140064
-0.06796222 -0.057046376 -0.051825244 -0.087623075 0.032554712 0.07824491 -0.05394674 -0.05673361
-0.113529734 -0.07504576 -0.05080278 0.025716504 -0.07461929 -0.02958372 0.07398085 -0.039004516
0.10649141 0.06892627 -0.09316631 0.13232519 0.054418106 -0.03793862 0.012110035 0.014997333
0.15184613 -0.101206996 0.07213105 -0.017113015 -0.031927425 -0.01684323 -0.025735112 -0.074153036
-0.0021684966 0.06453836 0.104031 0.1140384 -0.066217974 -0.05706857 0.019006284 -0.096344344
-0.006630239 -0.058625303 0.10197445 0.07113784 0.0037201266 -0.06895308 0.047669664 -0.12288312
0.09912274 -0.010041022 -0.05823847 -0.1437829 -0.10362423 0.05992292 -0.09891106 0.039485317
-0.07456479 0.04718882 0.0129801445 0.013193124 0.049636822 0.039935853 0.030838337 0.01610795
-0.04224964 -0.01032063 -0.06961753 -0.039318196 -0.044748206 -0.057049807 0.004156554 -0.03161838

fc_2.bias f4 [84]
00000000: 2bb4 8c3e 5326 cd3c e838 313e 5011 013e
00000010: 7e07 6d3e 1152 0f3d 177a 1abe f1d9 3abe
00000020: a502 b3bd 112b fa3c 1294 b53b 9193 13bd
00000030: 3c30 36be ade3 1b3e 3ddc 27bc 5e71 d1bd
00000040: 9f01 743e 29d5 dabd 54fb bc3b ea87 233e
00000050: 21ef 0e3d 7f04 743e 9fc9 8cbd 9cb8 1ebc
00000060: 99df 163e d56a c3bc ea8a 053d 032e a2bd
00000070: bada d0bd 571c 563d bd9a cf3d fc17 a03d
00000080: 7ee5 06bd 26a1 883e 7817 e9bb d6e1 993e
00000090: fbae 613d 4264 bbbc 5360 cd3c 1996 ae3d
000000a0: c860 b73d 428f f73c 4d93 e33d 634d 923c
000000b0: 1194 833d 63ff 1a3e adf2 96bd 7418 d03e
000000c0: 475d 083d 7608 e93c 6a82 07be 7bc2 f6bd
000000d0: ec26 a7bd f964 09bd 0b4b 613e eec0 b5bd
000000e0: 4f6a 283e 1c99 23bb 45cf c53d 4ecf 99bd
000000f0: 241f 293e 7523 96bd f19f 353e 739c d53d
00000100: 5ff8 9c3e 0c3e 5f3e 3c52 10be 4650 af3d
00000110: 973e 6a3d ae24 363d defb 2ebe 0958 42be
00000120: b15b 563e 8850 153a 0f0a 023d 69a2 723e
00000130: badf d33c 7560 8a3d 1481 423e b5fe c53d
00000140: f486 1abe d50b c03d 010e 88bc 64a5 973e
0.27481207 0.025042688 0.17306864 0.1260426 0.2314739 0.034990374 -0.15085636 -0.182472
-0.08740739 0.030538114 0.005541333 -0.036029402 -0.17791837 0.1522357 -0.01024538 -0.10226701
0.23828743 -0.10685188 0.0057672653 0.15969816 0.03489602 0.2382984 -0.06874394 -0.009687569
0.14733733 -0.023854652 0.032603182 -0.07918932 -0.10197969 0.05227312 0.10136936 0.07817075
-0.032933705 0.26685447 -0.0071133934 0.30055112 0.055098515 -0.022874955 0.025070345 0.085247226
0.089540064 0.030219678 0.1111208 0.017859166 0.06424726 0.15136485 -0.073705055 0.40643656
0.03329208 0.028446417 -0.13233343 -0.12048813 -0.08161721 -0.03354356 0.22001283 -0.08874689
0.16446804 -0.0024963086 0.09658674 -0.07510243 0.16515785 -0.07330982 0.17736794 0.10430231
0.30658242 0.21801013 -0.1409387 0.08560233 0.057188597 0.044468574 -0.17088267 -0.18978895
0.20933415 0.0005695899 0.031747874 0.23694767 0.025863517 0.06756679 0.18994552 0.09667722
-0.15090543 0.09377257 -0.01660824 0.2961837

fc_3.weight f4 [10, 84]
00000000: 76fe 8dbd 9a8f 40bd 19a9 13be b3de 0b3e
00000010: c518 e43d 8b3d 8c3d a96c c8ba f87c 1ebe
00000020: eee1 a7bc 3dd7 a83b 16cb ea3d 7134 e63d
00000030: 1969 0b3e 0954 17be 9246 2fbd 6446 ca3c
00000040: 8aab 2d3e 3289 0fbd 6cf4 1c3d bcca 003e
00000050: 736b 61bd b187 a83e e955 583d 8ad4 1cbd
00000060: 13e9 eb3c ad6c 913c 36a1 e6bd 6a76 a6bc
00000070: f6ad 5f3e 14ec 7cbe ff5a 2d3e 570b 903d
00000080: e532 99bd fba0 73be 7fac ac3d c34f 7c3e
00000090: b6c4 9d3e 014f 203c 0f0a 573d c1fd e53d
000000a0: 6dfe 8d3e b8d6 f6bc 9191 fb3d b2d9 b33d
000000b0: 953d 893d 6697 66be f548 ca3c b0e6 86be
000000c0: d53d 163e 666b e0bc fb45 343d bd01 65bd
000000d0: 9332 c93d eaf2 e03d aed8 4dbd b902 95bd
000000e0: 1b27 b73c f337 8a3d 8827 89be add6 37bd
000000f0: 47aa 643e dbcb 353d cf1a 7b3e a3bc b63e
00000100: 36cc 1cbe 1512 a43e d9e7 5a3e 7cd7 14be
00000110: d6f6 3bbe bccb 903e 8909 b4bc 06a4 bf3d
00000120: 3f84 09be baa3 71be f5a6 ac3d 4a54 1cbe
00000130: dfbb 57bd 5ae3 a63d ecd6 05be f40d 873c
00000140: 384e 493d 983c 80be 0786 06bd 6e50 5b3d
00000150: 782e 37be 0bfc bb3e f035 ea3d eb9f debb
00000160: 02ea 563b 0403 3a3e 9bbe 653d c549 13be
00000170: a91f eabc 247c 573e c242 c0bd 0fb3 373e
00000180: 71a6 7e3e cae8 edbc 29aa d53c 4dd7 b1bd
00000190: 819d eb3b 7fea dd3d 1f78 183e da68 1ebe
000001a0: 3b80 1a3d 9de5 82bd 6e29 efbb 59b0 62bd
000001b0: fb1a c6be 33f6 a9bd e953 813e eec7 de3d
000001c0: fb05 063d 20a0 2a3e 0a33 31be 0a5e ef3d
000001d0: a46f 9bbd 704a 7dbe 8e1b a1bd a18e 243c
000001e0: 923b 26be 21e1 a73d d636 2b3c c1a0 0fbe
000001f0: 5e7e 103e 3b3e 7bbe f316 8dbd 0095 813d
00000200: de6d 383c 6685 82be a1df 0dbd 62c8 4cbe
00000210: 88c9 283e 36d2 bfbc ea30 143e 0196 aabc
00000220: b23c 7dbd 82c4 913c 494a 85bc a101 ae3e
00000230: a30e 71bd 0b1b ab3d f302 8ebb 57dd 12bb
00000240: 3aa7 2a3e b347 c83d 0676 70bd 60f1 7bbe
00000250: d050 40be 8140 443e 7eb3 903e 21af 00be
00000260: 066d 583e 0c27 ddbd 858e 8a3e f59a a63d
00000270: 9b58 cdbd 8630 f7bc 0866 ad3b 1e34 43be
00000280: 9755 92ba 7eff 9b3d 0aa0 fcbd 223a c53d
00000290: 5510 7b3c 7e33 a63d 6d96 76bc b29b 5ebe
000002a0: 678a 193e f1b7 763b 2b9d 9dbc ab24 243e
000002b0: 9d45 643d 2c9d c0bd aea0 14be b362 c23d
000002c0: 6a0a e3bd 6c2f 30be bc5c 75bd 8779 fdbd
000002d0: 12ee a03a 735d ba3d 44c6 37bc fe67 5bbd
000002e0: 794e 2dbd 310a 61bd 97af 293e 1616 8a3e
000002f0: f3ec 4dbe f695 99bc 6c99 d73d c038 b33d
00000300: 33c6 493e a8be 403e 7b1e 0abd 0f9d 02be
00000310: da42 5c3d d9fa 8b3c 05b3 40bc 671b c0bc
00000320: 4186 863d f668 133e 41b0 a6bd 82a7 3bbe
00000330: bb37 923e d56a dbbd 24aa a7bd 72d2 283e
00000340: b97d 653e 18cb 9cbd 3449 4b3e 2297 70bd
00000350: cf90 eb3d 6ec7 debd 2f25 113d ec06 1e3e
00000360: 8176 893c e393 22bd 4326 81bd cbb3 f73d
00000370: 86e3 cb3c 4b4a cf3d 8684 083e 8134 4dbb
00000380: 8808 22be 2d7e 613d c0af 843d d8cf 693d
00000390: 1df2 37bc 0953 143d d8c2 babc ca63 573e
000003a0: c784 3e3e 7a08 45bd 1652 aebd 07ed 743e
000003b0: a3e4 29bd 1737 3ebd c5ad 8bbd 9d01 aabe
000003c0: ea6c e7bd eddb e73d f8be 0f3e ef44 043e
000003d0: e10d 30bd ef66 c6bd 611c c0bb bb5b b9bd
000003e0: c818 463b 84d4 ca3c 2cdf 3fbd e61d bebd
000003f0: 231c db39 1aca d3bd ad26 773d 6684 f73c
-0.069333 -0.04701195 -0.14419974 0.13659172 0.11137537 0.06847676 -0.0015291172 -0.1547736
-0.020493474 0.0051526115 0.11464517 0.11240471 0.1361431 -0.1477815 -0.04279191 0.024691768
0.16959968 -0.03504295 0.038319036 0.12577337 -0.055034112 0.32916024 0.052816305 -0.03828863
0.028797662 0.017752016 -0.11261217 -0.020320136 0.21843705 -0.24699432 0.16929244 0.07033413
-0.074804105 -0.23791878 0.084313385 0.24639802 0.3081414 0.009784461 0.052499827 0.1123004
0.27733174 -0.030131683 0.12283624 0.087817565 0.06701199 -0.22518691 0.024692992 -0.26347876
0.14672025 -0.027394962 0.04401205 -0.05590986 0.098240994 0.10983832 -0.05025547 -0.0727591
0.022357514 0.06748953 -0.26787972 -0.044882465 0.2233058 0.044383865 0.24521945 0.35690793
-0.15312275 0.32045045 0.21377505 -0.14535326 -0.18355879 0.28280437 -0.021977203 0.09357457
-0.13429354 -0.23597613 0.08430282 -0.15266529 -0.052669402 0.081488326 -0.13070267 0.016486146
0.04914686 -0.2504623 -0.032842662 0.0535435 -0.1788882 0.3671573 0.11436069 -0.006793966
0.0032793288 0.18165213 0.05608998 -0.1438361 -0.02857955 0.2104345 -0.09387733 0.17939399
0.2486818 -0.029041667 0.026082115 -0.086836435 0.007190407 0.10835742 0.14889573 -0.15469685
0.037719946 -0.063914515 -0.00729864 -0.05534396 -0.3869246 -0.08298912 0.2525933 0.10877977
0.032720547 0.16662645 -0.17304626 0.116878584 -0.07589653 -0.24735427 -0.07866584 0.010043771
-0.16233662 0.08197237 0.010450086 -0.14026166 0.14110705 -0.24535458 -0.06889143 0.063272476
0.011256663 -0.254924 -0.034637097 -0.19998315 0.16483128 -0.023415666 0.14471784 -0.02082348
-0.06182546 0.017793898 -0.016270773 0.33985618 -0.05885185 0.083547674 -0.0043338477 -0.002240976
0.16665354 0.097793005 -0.058706306 -0.24603796 -0.18780828 0.19165231 0.28261942 -0.12566806
0.21135339 -0.10798463 0.2706186 0.081350245 -0.10026666 -0.030174505 0.005291704 -0.1906285
-0.0011164424 0.07617091 -0.123352125 0.096302286 0.015323718 0.0811529 -0.015050513 -0.2173908
0.14994203 0.0037646259 -0.019239983 0.16029613 0.05573045 -0.09404978 -0.1451442 0.09491482
-0.11085971 -0.1720559 -0.05990289 -0.12376695 0.0012277982 0.09099855 -0.011216704 -0.05356597
-0.042311165 -0.05494136 0.16570888 0.26969975 -0.2010992 -0.018748265 0.1052731 0.087510586
0.19704513 0.1882273 -0.033720475 -0.12755226 0.053774692 0.017087387 -0.011761432 -0.023450566
0.06568576 0.14395508 -0.081390865 -0.18325618 0.28558144 -0.10713736 -0.081867486 0.16486529
0.2241124 -0.076559246 0.19852144 -0.05873788 0.115022294 -0.10877882 0.03543585 0.15432328
0.01678014 -0.039691817 -0.06306126 0.1209484 0.024888765 0.10121592 0.13331804 -0.0031311812
-0.15823567 0.05505197 0.06478834 0.05708298 -0.011227158 0.036212 -0.022797987 0.2103416
0.18605338 -0.048103787 -0.085117504 0.23918544 -0.04147781 -0.046439257 -0.06820253 -0.33204356
-0.113000706 0.113212444 0.14037693 0.12916921 -0.042981986 -0.09687602 -0.005862758 -0.09050699
0.0030227173 0.024759538 -0.046843693 -0.092830464 0.000417919 -0.10341282 0.06033962 0.0302145

fc_3.bias f4 [10]
00000000: 331c 5fbe 59ae 20bf 38fd ae3e 28c4 cd3e
00000010: 1704 ef3e 201a 50be 9a20 1f3e 0ec2 90be
00000020: 590c 963e e0f6 adbe
-0.21788101 -0.62766033 0.34177566 0.40188718 0.46682808 -0.20322466 0.1553978 -0.28273052
0.29306296 -0.33977413
