dl/demo/demo.onnx (onnx, 837377 bytes, 8 tensors)

classifier.bias f4 [4]
00000000: 40aa c6b8 d068 8f39 99f7 61bb 3604 683b
-9.473087e-05 0.00027353177 -0.0034479855 0.00354029

classifier.weight f4 [4, 52229]
00000000: fe9f 6c3b a27b 29bb 200b b7b9 18fd 23bb
00000010: 4425 1fbb 30a3 3a3b fe25 0d3b b45d 8b3a
00000020: 126d 8ebb 2c7b 353b 9200 bdba 0219 89bb
00000030: b0a3 dbb9 c5a4 0ebb e4c8 603b 9c19 ae3a
00000040: 9ea4 6b3b e03b 8b39 ada2 873b 401f 1c39
00000050: 9ef8 353b 404a e839 803d 1bb8 3a98 673b
00000060: e072 96b9 8457 f33a b0ff 9bb9 44ee 6aba
00000070: 3c79 ba3a a451 dc3a b25a 433b d2b4 f3ba
00000080: 4221 613b fa0b 313b 3046 9f3a 6224 473b
00000090: 8061 f73a 56e2 603b 9873 ed3a 56f9 a9ba
000000a0: 3f1d 4ebb a063 f53a 1021 0ebb 602c 41ba
000000b0: a259 043b bad4 32bb 302e 853a a7d6 883b
000000c0: 1438 8a3a c4ef a63a 200b 90b9 3ec4 abba
000000d0: 741e 3bbb d898 423a c8d0 c63a 7037 383b
000000e0: c800 5fbb 78fb 703a 228f 34bb c001 11bb
000000f0: a862 ac3a d44a 573b 6855 4fbb 8cf3 7abb
00000100: 5483 53ba 8c79 de3a dc40 ba3a 38a8 f43a
00000110: 0e12 733b 2c52 1f3b 8886 b8ba 40c8 b7b8
00000120: 4040 5d39 ee9e 6dbb 6908 38bb e891 0dbb
00000130: be65 78bb 7833 d7ba 7ee5 2ebb e8d7 efba
00000140: 46cb 703b 4a9a 093b 98df 44bb e43b 923a
00000150: d064 4b3a 7e45 2b3b 907c e2ba f01b 4c3a
00000160: fa48 82bb dedd 7abb 14d9 5f3b 58cd 473a
00000170: ed28 843b a063 f0b9 4887 69ba 442b 8eba
00000180: f6fc 403b 80d4 593a 600d 00ba edd2 02bb
00000190: c0a0 d4b9 5ed5 26bb 0250 4e3b 1277 033b
000001a0: 2866 cf3a 0234 aaba d01f faba da3c ccba
000001b0: 50e5 0cbb 0451 f43a b4bf 5aba 1673 14bb
000001c0: 90b9 253b 24a2 eb3a 480f b6ba 363b f1ba
000001d0: 1926 8d3b 8d91 833b a0c0 1f3a bc9e 5fba
000001e0: f84c 0c3b c0f8 f7b9 b80c 22bb 3e38 6b3b
000001f0: b0a9 fd3a d8e3 af3a c488 5c3b 4254 3cbb
00000200: dc8c ca3a f87c 753a e3d8 863b dc63 edba
00000210: a047 5eb9 a09e cdb9 7cde da3a a82e 013a
00000220: 7192 803b 38a3 14bb 2abe 86ba b65b 133b
00000230: a12e 853b 6cb8 74bb 8f41 22bb 8dac 1ebb
00000240: c4a2 24bb 7883 033b 1a80 b1ba fcdc f83a
00000250: e85f d33a d865 6bba c633 56bb 7cde 6aba
00000260: b760 7dbb c0fd 433b 98de ee3a 307d d2b9
00000270: 28d5 75bb 5039 4bbb 5680 6f3b 10d7 9939
00000280: 4073 9738 542d d7ba 20d6 c4b9 cee5 d1ba
00000290: 4918 8d3b 1603 7d3b 7c62 543b 3055 8ab9
000002a0: 884a f0ba 1e6e c9ba 20d7 b4ba b65c 713b
000002b0: 78ca 3d3b 6a9f 9fba dd85 873b db12 7bbb
000002c0: 6401 d63a 167a 9cba 4ca8 6bbb 00cc 63ba
000002d0: a6ab 3b3b bbab 03bb d0a7 383a 20fe 133a
000002e0: bd68 59bb d570 83bb 1075 933a f6c2 c8ba
000002f0: f8f5 853a d5ae 8cbb 0c8b 80bb 2041 333b
00000300: 0062 39b7 606b d7b9 2a52 413b 00b7 8ab9
00000310: 6063 3e39 20f4 21b9 4543 75bb 41b3 6fbb
00000320: a46a aeba 86fb 3d3b 8e88 643b ccd1 4a3b
00000330: de0e 79bb a8eb 91ba 62d3 88ba 08f5 86bb
00000340: 642d 57bb 04df f93a f02b c3b9 a383 853b
00000350: 3b32 4ebb 8092 90b8 c48b a7ba 3630 653b
00000360: be5c d7ba 8051 8db8 ac0a a63a 8cdb 12bb
00000370: d0a7 f339 7f37 873b 8a1d 673b 80f7 3db8
00000380: ceb9 3bbb 983d 583a bae8 773b 802e 233b
00000390: 8850 a73a 8419 c6ba ba13 85ba 1fa1 8c3b
000003a0: 001b 36bb 8ca0 453b 127c 82bb 52af 74bb
000003b0: b4c6 a03a 2026 4dbb df39 0dbb 90fb 033a
000003c0: 8cb7 1fba 3c4d 53bb 4adf 1f3b 42d3 cdba
000003d0: ca2a daba c4da 873a 0088 74bb b0ee 883a
000003e0: 747e f03a ec70 e13a c046 be3a 6092 f439
000003f0: 6c1a 7fbb 5c47 60ba 18c2 4dbb e2a7 a3ba
0.0036106105 -0.0025861044 -0.0003491277 -0.0025022682 -0.0024283687 0.0028478615 0.0021537538 0.0010632784
-0.0043464983 0.0027691824 -0.0014419726 -0.0041838894 -0.00041892892 -0.002176569 0.0034299428 0.0013282779
0.0035956274 0.00026556756 0.0041392655 0.00014888961 0.0027766596 0.0004430581 -3.7012156e-05 0.0035338537
-0.00028695818 0.001856551 -0.00029754406 -0.0008961896 0.0014226804 0.0016808999 0.0029808697 -0.0018593317
0.0034352099 0.0027015195 0.0012151655 0.0030386676 0.0018873662 0.0034314594 0.0018116115 -0.0012967985
-0.0031450537 0.0018721707 -0.0021687187 -0.0007368978 0.0020195027 -0.002728744 0.001016086 0.004175979
0.0010545277 0.0012736251 -0.0002747411 -0.0013104749 -0.0028552087 0.0007423288 0.0015168423 0.0028109215
-0.0034027565 0.0009192745 -0.0027551134 -0.0022126287 0.001315196 0.0032850998 -0.00316366 -0.0038292138
-0.00080685806 0.001697348 0.0014210003 0.0018665856 0.003708962 0.0024310453 -0.0014078179 -8.7634195e-05
0.00021100137 -0.003625806 -0.0028081185 -0.002160186 -0.003790244 -0.0016418537 -0.002668708 -0.0018298598
0.0036742254 0.0020996504 -0.0030040499 0.0011156765 0.00077588577 0.002613395 -0.0017279554 0.00077861454
-0.0039759846 -0.0038279216 0.0034156488 0.0007621846 0.004033199 -0.00045850594 -0.0008908403 -0.0010846634
0.0029447651 0.0008309558 -0.00048848055 -0.0019962147 -0.0004055556 -0.0025456767 0.0031480794 0.0020059985
0.0015823292 -0.001298547 -0.0019082967 -0.00155821 -0.0021498986 0.0018639867 -0.0008344606 -0.0022651604
0.0025287606 0.0017977399 -0.0013890052 -0.0018404487 0.00430752 0.0040151537 0.0006094072 -0.0008530428
0.0021408182 -0.00047296844 -0.002472682 0.0035891677 0.0019352939 0.0013419343 0.0033650855 -0.0028736745
0.0015453356 0.000936463 0.0041152104 -0.0018111425 -0.00021198252 -0.00039218832 0.0016698386 0.0004927912
0.003923707 -0.0022680294 -0.0010280062 0.0022485084 0.0040643965 -0.003734137 -0.0024758314 -0.0024211735
-0.002512143 0.0020067375 -0.0013542206 0.0018986757 0.0016126605 -0.00089797145 -0.0032684668 -0.00089595444
-0.0038662383 0.0029905885 0.0018224297 -0.00040147593 -0.0037511084 -0.0031009503 0.0036545 0.00029342668
7.221708e-05 -0.0016416707 -0.0003754357 -0.0016013922 0.0043058735 0.0038606576 0.0032407334 -0.0002638488
-0.0018332759 -0.00153679 -0.0013797022 0.0036828942 0.0028959792 -0.0012178246 0.004135831 -0.00383108
0.0016327319 -0.001193824 -0.0035958467 -0.0008689761 0.0028636246 -0.0020091373 0.0007044049 0.00056454726
-0.0033174 -0.0040112534 0.0011250097 -0.0015316892 0.0010220399 -0.0042933025 -0.0039228257 0.002735205
-1.1049677e-05 -0.00041087996 0.0029498436 -0.00026457757 0.00018156832 -0.000154451 -0.003742413 -0.003657535
-0.0013306928 0.002898903 0.0034871432 0.0030947803 -0.0038003246 -0.0011132853 -0.0010438974 -0.0041185655
-0.0032833451 0.0019063656 -0.00037226034 0.00407453 -0.0031463045 -6.893743e-05 -0.0012782742 0.0034971363
-0.0016430838 -6.7385845e-05 0.0012667975 -0.0022408692 0.00046473602 0.0041264887 0.003526541 -4.5291614e-05
-0.0028644684 0.0008248924 0.0037827925 0.0024899542 0.0012765089 -0.0015113805 -0.0010152974 0.004291668
-0.002778709 0.0030155508 -0.0039820755 -0.0037335944 0.0012266249 -0.0031303242 -0.0021549386 0.0005034739
-0.0006092719 -0.003224208 0.0024394565 -0.0015703219 -0.0016644832 0.001036488 -0.0037312508 0.0010447111
0.0018348233 0.0017199791 0.0014516935 0.00046648365 -0.003892566 -0.0008555555 -0.0031396206 -0.0012485946

features1.0.bias f4 [3]
00000000: 4096 75bd a7f6 913e 646d f93d
-0.059957743 0.28508493 0.12179068

features1.0.weight f4 [3, 1, 3, 3]
00000000: 71a5 9c3e be62 353e 2644 223e 7c8b cebd
00000010: c0c4 4dbe 6509 aa3e 88b8 02be 7cbd 813d
00000020: 0170 9d3e f462 8f3d c0a5 e0bc fa24 323e
00000030: 5024 1a3e 0ca8 d6bd 223f a0be 5612 b5bd
00000040: 00e8 0a3d a468 e43d 3b21 923e 4288 633e
00000050: 49a4 a23e 0c0a c6bd abce 10be 2839 63be
00000060: 408e 28bd e09d 7f3d 0d36 aa3e
0.30594972 0.17713448 0.15846309 -0.10085198 -0.20094585 0.33210292 -0.12765706 0.063349694
0.30749515 0.07001296 -0.027422786 0.17396918 0.15052915 -0.10481271 -0.31298167 -0.08841388
0.03391266 0.11152771 0.28540978 0.22219947 0.31765965 -0.09669885 -0.14141338 -0.22189772
-0.041151285 0.06240642 0.33244362

features2.0.bias f4 [3]
00000000: 69fa a33e 7539 973e e07f b33d
0.32026985 0.29536024 0.087646246

features2.0.weight f4 [3, 1, 3, 3]
00000000: fbd2 28be dc47 8dbe 5067 c0bc 4755 81be
00000010: d51b 8c3e fcaf 923d 51b8 913e 4a2f 453e
00000020: 4d09 aa3e 4e48 0cbe 0f6d a0be 18de 263d
00000030: 5a66 92be 2ae1 723e 40fb 243d 39ed 803e
00000040: f8ca 0c3e c7b8 8a3e 12ad 92be 06de 403e
00000050: 75ae 953e a04b 163d 5ec8 9ebe 03c2 88be
00000060: 00c8 9a3c 83bf 3ebe 70b0 0a3e
-0.16486733 -0.27593887 -0.023486763 -0.25260374 0.27364984 0.071624726 0.28460935 0.1925632
0.3321022 -0.13699457 -0.31333205 0.04073915 -0.28593713 0.23718706 0.040278673 0.25180987
0.13749301 0.270941 -0.28647667 0.18834695 0.29234663 0.036693215 -0.31012243 -0.2671052
0.018894196 -0.18627743 0.13543868

features3.0.bias f4 [5]
00000000: f501 953e a290 d4bd 8a31 5a3e 073f 9d3e
00000010: cac7 f3bd
0.29103056 -0.10379149 0.2130796 0.3071215 -0.11903341

features3.0.weight f4 [5, 10]
00000000: d81c f3bd eafb 5d3e 408b 8b3c b31e 8e3e
00000010: 3016 b13c 5acc afbd 36e4 a1be e4ba 8bbd
00000020: f61f 16be 0ccd 4abe 686c 83bd 5778 9f3e
00000030: 0089 7abc 901d 86bc cd77 9dbe f08d c2bc
00000040: ab72 8dbe b03a b3bc 6e4b 413e 8e16 f8bd
00000050: 10f4 8abc e4f9 e6bd 4674 56be 2c16 17be
00000060: a486 2abe f09c ec3c 2a02 563e 620a 7b3e
00000070: d890 5b3d 7019 893c 2037 c3bc 4e47 7d3e
00000080: c7cb 90be 4081 debc 0058 94b9 cf5f 9f3e
00000090: 4a65 1cbe 2afd 84be 9b8d 90be 04a6 1c3e
000000a0: aac7 7abe d857 7bbd e2af fbbd a667 753e
000000b0: 10c2 313e 20f1 853c f82f a1bd c896 d83d
000000c0: 1088 bebc 0dbc 8d3e
-0.11870736 0.21678129 0.017034173 0.27757797 0.021617025 -0.08583899 -0.31619424 -0.06822756
-0.1466063 -0.19804782 -0.06417161 0.311465 -0.015291452 -0.016371518 -0.30755463 -0.023749322
-0.27626547 -0.02187857 0.1887643 -0.12113677 -0.016962081 -0.112781316 -0.20942792 -0.14754552
-0.16652924 0.028883427 0.20899263 0.2451568 0.05360493 0.016735762 -0.023829997 0.24734232
-0.2828047 -0.02716124 -0.00028294325 0.31127784 -0.15273014 -0.259744 -0.28233036 0.15297705
-0.24490228 -0.06136307 -0.12289406 0.2396532 0.17359185 0.016350329 -0.078704774 0.10575634
-0.023258239 0.27682534
