dl/demo/layer_norm.onnx (onnx, 1641 bytes, 3 tensors)

conv2d_1.bias f4 [6]
0	0xbe3401cf	-0.17578815
1	0x3dca3e7e	0.09875201
2	0x3da1313a	0.07870717
3	0xbdb2532f	-0.08707272
4	0xbbf3bae0	-0.0074380487
5	0x3cc70570	0.024294585

conv2d_1.weight f4 [6, 3, 3, 3]
0	0xbd00625c	-0.031343803
1	0xbd8b2116	-0.0679342
2	0xbe1a7f91	-0.15087725
3	0x3e3b1a1b	0.18271677
4	0xbce01b70	-0.027356833
5	0xbe3611cd	-0.17780228
6	0xbd710598	-0.058843225
7	0x3e31d25d	0.17365403
8	0x3db1f902	0.086900726
9	0xbdab1223	-0.08353069
10	0x3db90c1a	0.09035511
11	0xbd80a9e2	-0.062824026
12	0x3e19c7ef	0.15017675
13	0x3e35f333	0.17768554
14	0x3cafc038	0.021453962
15	0x3decd1be	0.11563443
16	0x3d073cc8	0.03301695
17	0xbdaf145a	-0.08548804
18	0x3e44d4b9	0.19221772
19	0xbe2462d0	-0.16053319
20	0x3d327b80	0.04357481
21	0xbdbc6c82	-0.09200384
22	0x3e1bc57f	0.15212058
23	0x3dd062c2	0.101750866
24	0x3c389050	0.0112648755
25	0x3c0a8a10	0.008455768
26	0xbd153758	-0.036429733
27	0x3dfddfde	0.12396215
28	0xbe3720a3	-0.17883544
29	0xbcde2aa0	-0.027119935
30	0x3e1a3c41	0.15062048
31	0xbdc954da	-0.09830637
32	0x3d449f84	0.04800369
33	0xbdaec2d9	-0.08533258
34	0xbb935f80	-0.0044974685
35	0xbe156c86	-0.1459218
36	0xbe3721e2	-0.17884019
37	0xbdfd9a29	-0.12382919
38	0x3d920a76	0.071309015
39	0x3cf3c6b8	0.029757842
40	0xbe124409	-0.14283766
41	0xbe12f804	-0.14352423
42	0xbca438b0	-0.020046562
43	0xbdb73d6c	-0.08947262
44	0xbd491dfc	-0.04910086
45	0x3dab5332	0.083654776
46	0x3d25b930	0.04045981
47	0xbe37210a	-0.17883697
48	0xbe146cac	-0.1449458
49	0xbe107131	-0.14105679
50	0x3d9b3296	0.07578008
51	0x3dab80de	0.08374189
52	0x3d2b5200	0.04182625
53	0xbe2388e2	-0.15970185
54	0xbd36c9bc	-0.044625983
55	0x3d31b468	0.04338494
56	0xbd30cd1c	-0.043164358
57	0xbdcf7aac	-0.1013082
58	0xbe36d618	-0.17855108
59	0xbc367f60	-0.011138767
60	0xbe3f00de	-0.18652675
61	0x3d41ed0c	0.047345206
62	0x3d37157c	0.044698223
63	0x3dafbb1e	0.08580612
64	0x3d9670e2	0.073457494
65	0xbbf93220	-0.0076048523
66	0xbddec0e6	-0.10876636
67	0x3d9a039e	0.07520221
68	0x3ddd0732	0.10792388
69	0xbd96bc47	-0.0736013
70	0x3dddd29a	0.10831185
71	0xbde3077c	-0.11085412
72	0x3a9bf100	0.0011897385
73	0xbd82d16e	-0.06387602
74	0xbe17554f	-0.14778636
75	0xbe0608c3	-0.1308928
76	0xbd92b13e	-0.071627125
77	0xbd38cac8	-0.045115262
78	0xbdedd952	-0.11613716
79	0xbe08f1e3	-0.13373522
80	0x3cef0470	0.02917692
81	0xbd45f13c	-0.048325762
82	0x3e074453	0.13209657
83	0x3de4aad6	0.11165397
84	0x3e20c973	0.15701847
85	0x3dd3820a	0.10327537
86	0x3e2a735b	0.16645567
87	0xbc6a28a0	-0.014291912
88	0x3d7673bc	0.060168967
89	0xbbd29200	-0.006426096
90	0x3d000f20	0.031264424
91	0x3d80d2fe	0.062902436
92	0xbdd3d94d	-0.10344181
93	0x3df8a19a	0.12140198
94	0xbd5218b4	-0.05129309
95	0xbd85ee80	-0.06539631
96	0xbd83b57c	-0.064311
97	0xbd61f3dc	-0.055164203
98	0x3999c800	0.00029331446
99	0xbe350971	-0.17679383
100	0x3dfb3082	0.122651115
101	0xbbc84980	-0.0061122775
102	0x3d9711ee	0.07376467
103	0x3dc0758e	0.09397422
104	0xbddc3749	-0.10752732
105	0xbdbba5f3	-0.09162512
106	0x3d6f9cbc	0.058499083
107	0xbe28c4b4	-0.16481286
108	0x3dad4366	0.08460121
109	0x3d1ed4bc	0.038777098
110	0x3dc293b2	0.09500827
111	0x3dfded32	0.12398757
112	0xbe43bd58	-0.19115198
113	0x3e37d4e7	0.1795231
114	0xbd7acd84	-0.06123115
115	0xbe41e055	-0.18933232
116	0xbd5700c0	-0.05249095
117	0x3db7f86e	0.08982931
118	0xbe12da7d	-0.14341159
119	0xbe1d59a0	-0.1536622
120	0xbe0e7fd3	-0.13915949
121	0x3e07ee1f	0.1327443
122	0x3e1b0265	0.15137632
123	0xbe030ee5	-0.1279865
124	0x3d47c844	0.048774973
125	0x3d8fe046	0.07025199
126	0xbd2c04e8	-0.041996866
127	0x3e076199	0.13220824
128	0x3d677748	0.05651024
129	0xbc5dd190	-0.013538733
130	0xbd828f24	-0.06374958
131	0xbe442177	-0.19153391
132	0xbde43cdf	-0.11144423
133	0xbdbe24bd	-0.09284351
134	0xbdcf2826	-0.101150796
135	0xbc0e9ee0	-0.008704871
136	0xbe036f40	-0.12835407
137	0xbe3cf347	-0.18452178
138	0x3da97d2e	0.08275829
139	0x3dfe30fa	0.12411685
140	0x3e075e27	0.1321951
141	0xbe013c53	-0.12620668
142	0xbe104261	-0.14087822
143	0x3db6b516	0.08921258
144	0xbe2739f7	-0.16330706
145	0xbc959f60	-0.018264472
146	0x3e0d5d81	0.138052
147	0x3e210e45	0.157281
148	0xbc2507d0	-0.010072663
149	0xbdf59db4	-0.1199297
150	0x3d29c108	0.041443855
151	0xbde77f49	-0.113035746
152	0xbd2d2404	-0.042270675
153	0x3dfa6dba	0.1222796
154	0x3dfa3cb6	0.12218611
155	0x3bb41c20	0.005496517
156	0xbdec6d4d	-0.11544285
157	0x3e300e13	0.17192869
158	0xbe289410	-0.16462731
159	0xbe3d062d	-0.18459387
160	0x3e183cff	0.14867018
161	0xbe36b901	-0.17844011

conv2d_2.weight f4 [1, 6, 3, 3]
0	0xbb262b80	-0.0025355518
1	0xbd3f2090	-0.046661913
2	0x3dad3c72	0.08458795
3	0xbc6c5490	-0.014424458
4	0xbd90a41b	-0.07062551
5	0xbd47cb1e	-0.048777692
6	0xbe0a186c	-0.13485879
7	0x3e003ad6	0.12522444
8	0x3c989d08	0.018629566
9	0x3e0a7ac0	0.13523388
10	0x3d89a6de	0.067212805
11	0x3c671640	0.014104426
12	0x3c962718	0.018329188
13	0xbdaa1700	-0.08305168
14	0xbd7662f2	-0.060152955
15	0x3de8a52a	0.113596275
16	0xbdffec72	-0.1249627
17	0x3d33d2cc	0.043902203
18	0x3b35cb00	0.0027739406
19	0x3dd7287c	0.10505769
20	0x3d610e5c	0.054945335
21	0xbb464100	-0.0030251145
22	0x3cc784a0	0.024355233
23	0xbcd03604	-0.025416382
24	0xbdcb68d4	-0.09932104
25	0xbdb8db8a	-0.09026249
26	0x3dd841bc	0.10559413
27	0x3ac2b380	0.001485452
28	0x3ac0f100	0.0014720261
29	0xbdddbe5c	-0.10827324
30	0xbd95f973	-0.07322969
31	0x3db3347e	0.087502465
32	0xbde30bb9	-0.1108622
33	0xbdb7ffe5	-0.08984355
34	0xbda86e56	-0.0822417
35	0x3dbc826a	0.09204562
36	0xb9c6f200	-0.00037945807
37	0x3e00bda6	0.12572345
38	0xbe055dbb	-0.13024037
39	0xbd34fdde	-0.04418742
40	0x3d82a1e0	0.063785315
41	0x3d388a24	0.045053616
42	0xbde02fbc	-0.109466046
43	0x3c903810	0.017604858
44	0xbdbcca27	-0.09218245
45	0xbddfbd50	-0.1092478
46	0xbd23802a	-0.03991715
47	0xba50db00	-0.0007967204
48	0xbda2a352	-0.07941307
49	0xbc5ab420	-0.013348609
50	0xbddbc866	-0.10731582
51	0xbd43f186	-0.047837757
52	0x3ccf7fc8	0.025329486
53	0xbdb2b5a2	-0.0872605
