test/dynamic_conv/demo_multiinput.onnx (onnx, 837377 bytes, 8 tensors)

classifier.bias f4 [4]
00000000: a7ae 6cbb 16e4 58bb 90e5 393a 6cfe 543b
-0.0036114843 -0.0033094934 0.00070913974 0.003250028

classifier.weight f4 [4, 52229]
00000000: c089 003b fc3c 333b cfd8 66bb b421 e9ba
00000010: 8574 8bbb 5291 723b ca73 62bb e497 a83a
00000020: 106e 1cba 8e7a 7fbb 0b4c 08bb 00c9 fcb8
00000030: 843c 363b 38e7 38bb d4e5 443b 66c8 6d3b
00000040: fc02 193b cdb3 893b 90e8 393a 54c8 9bba
00000050: f4d0 4e3b 8b8c 81bb c0eb b738 f07d f43a
00000060: d1b9 7cbb 3a83 703b d6ab 4e3b eaa7 45bb
00000070: 4c1e 253b f49f d4ba 64b7 0cba ea92 e5ba
00000080: 165d f5ba 5cbf e43a c838 2e3a 4e9b fcba
00000090: b061 a8b9 8847 303a a2ac 5abb cc35 193b
000000a0: 26d4 253b 2a86 7b3b 7081 53bb 004f 6738
000000b0: ba43 633b 061f c1ba 8c21 2dbb 4474 0dbb
000000c0: 505d 3ebb b8c7 e6ba 00cb 313b f049 4bba
000000d0: 4ec7 733b e050 fc3a 506f 323a 65a0 4fbb
000000e0: 5ce0 ef3a 68ff 5c3b 8c41 f43a 7e0f 59bb
000000f0: a0f7 fb39 3cb9 76bb f806 9fba 2d69 46bb
00000100: 1203 043b 30d7 f339 b322 8f3b 4a44 8ebb
00000110: 8829 6ebb 50df 71ba a865 1d3a dc04 0fbb
00000120: 5449 49bb 47ff 45bb 5860 b23a 6c6c ca3a
00000130: f8cb 723a 0efa 12bb 741c c23a 22ba 7a3b
00000140: dc47 92ba 9ebf 733b f0cd e0b9 9bac 49bb
00000150: 940f 91ba b71d 8f3b 5a83 683b 78b5 cdba
00000160: b217 6b3b 1432 3cba 10eb 9a3a e092 66b9
00000170: 2cc6 44ba dca4 f6ba 3095 c53a 1274 493b
00000180: 6d32 3fbb f2bf 60bb 541e 37ba 4654 793b
00000190: 1859 7abb 0e07 35bb 2459 953a 28cd 693a
000001a0: 204f 65b9 2a95 363b d029 bfba 925c abba
000001b0: 55f3 82bb 0646 03bb cc0e 593b 84d8 8a3a
000001c0: a43d 30bb 0c5e 5abb 601d 4b39 356d 07bb
000001d0: b017 c83a cbe2 8dbb 86cb 7a3b a02f 6bb9
000001e0: c28e 093b a4df dbba 36b3 29bb 87f2 2cbb
000001f0: ac05 183b f892 0d3a 300d 3fbb f6f9 57bb
00000200: 249d 06ba 8088 4d38 1030 a139 cce9 97ba
00000210: 60a7 3ab9 8ce4 533b 80a3 a638 b88d 2c3b
00000220: 381b 463b 8c5c b43a 8c0c d03a 8eea 60bb
00000230: 1f98 37bb 305b cd3a bc94 5dbb 4a1a aeba
00000240: cc7a 3f3b c030 a238 858b 16bb fcf7 7dba
00000250: a4cc ab3a 5deb 873b 76df a1ba 440f fe3a
00000260: 12f6 7d3b a614 643b 3065 8d39 4729 86bb
00000270: e089 3cb9 7067 35ba 8e08 64bb b68d 86bb
00000280: 7d26 883b e00b e539 c0a2 5f3a cc73 59bb
00000290: c8e9 83bb a0ac 463b 44af 51ba 4c95 39ba
000002a0: 3e5e 81ba 5ad5 ddba e2d5 733b 7e51 683b
000002b0: 2fe4 843b f0ac a539 c872 3aba 5f67 01bb
000002c0: 4ef0 243b 2d41 4dbb 98ef 17bb 56df 553b
000002d0: 8a22 84bb cd95 803b f038 76ba 96b6 f7ba
000002e0: c832 233a de81 0dbb e035 58bb 008a 5937
000002f0: c00f c0ba 7bd0 13bb ca9e 663b 002d a5b7
00000300: 825f 043b d6c2 ebba 1d09 8cbb 2495 1fbb
00000310: 882f 46ba 80b8 d0b9 cca3 57bb 9029 043a
00000320: 5ea9 4c3b c681 37bb 8ae6 09bb 34bb 97ba
00000330: 18d5 2dbb 3c87 fdba 80d8 0439 51a6 843b
00000340: 6fcb 80bb 3c70 32ba d053 483a a0a8 bab9
00000350: 76c0 62bb fc96 1abb 2a06 473b 10f3 9c3a
00000360: 0b4a 8d3b e164 893b c0fa 343a e0bf f339
00000370: 909a 2bba 7c7b e63a b075 fcba 776a 843b
00000380: 5225 243b 1868 4b3b e0f9 c139 43de 40bb
00000390: 241f bd3a 8b57 883b d847 4f3b e4fe ed3a
000003a0: f866 923a 4073 ff3a d066 d33a d489 3a3b
000003b0: 5dae 873b 48c6 593a e8cb 033a 504b ea3a
000003c0: 8016 9cb9 ac80 24bb 9cc5 c73a 02df 68bb
000003d0: 14af 02ba 58ee ad3a 5cb8 96ba e275 723b
000003e0: f4e2 8ebb 2e86 84ba 0ad6 bfba 20b2 493a
000003f0: a2c4 393b 0298 74bb da2a 663b e461 b23a
0.0019613355 0.0027349582 -0.0035224443 -0.0017786534 -0.0042558336 0.0037012887 -0.003455388 0.001286265
-0.00059673283 -0.003898296 -0.0020797278 -0.000120537356 0.0027807066 -0.002821399 0.0030044215 0.0036282777
0.0023347726 0.004202342 0.00070918445 -0.0011885264 0.0031557651 -0.0039535216 8.770032e-05 0.0018653255
-0.0038562904 0.003669931 0.0031535528 -0.00301599 0.002519506 -0.0016221986 -0.00053679035 -0.0017515097
-0.0018719758 0.0017452049 0.00066460343 -0.0019272359 -0.0003211624 0.0006724526 -0.0033367057 0.0023378013
0.0025303452 0.0038379529 -0.0032273196 5.5148266e-05 0.003467782 -0.0014733977 -0.00264177 -0.0021584192
-0.0029047318 -0.0017607128 0.0027129054 -0.0007754853 0.0037197652 0.0019250177 0.0006806748 -0.0031681296
0.0018301117 0.003372157 0.0018635257 -0.0033120806 0.00048058946 -0.003764703 -0.0012132814 -0.0030275092
0.0020143432 0.000465089 0.00436815 -0.004341637 -0.0036340673 -0.00092266966 0.00060042227 -0.0021822965
-0.0030713873 -0.0030211972 0.0013609035 0.0015443689 0.0009261961 -0.0022426876 0.0014809505 0.0038257916
-0.0011160332 0.003719307 -0.00042878045 -0.0030773047 -0.0011067265 0.004367556 0.0035478682 -0.0015694341
0.0035872278 -0.0007179093 0.0011819322 -0.00021989224 -0.00075063366 -0.0018817442 0.0015074369 0.003073935
-0.0029174343 -0.0034294096 -0.0006985415 0.0038044616 -0.0038200077 -0.0027622613 0.0011394364 0.00089188153
-0.00021868618 0.0027859905 -0.0014584605 -0.0013073853 -0.0039962926 -0.002003075 0.0033120392 0.0010593091
-0.002689221 -0.0033320216 0.00019370532 -0.0020664458 0.0015265848 -0.0043300143 0.0038268282 -0.00022429088
0.0020989631 -0.0016775024 -0.0025894172 -0.0026389675 0.002319674 0.0005400623 -0.0029152147 -0.0032955385
-0.000513511 4.9002934e-05 0.00030744122 -0.0011590063 -0.00017800694 0.003233227 7.945951e-05 0.0026329588
0.0030228626 0.0013760491 0.001587288 -0.0034319493 -0.0028014255 0.0015667435 -0.0033810576 -0.0013282981
0.002921748 7.733842e-05 -0.0022971344 -0.00096881366 0.0013107252 0.0041479305 -0.0012349922 0.0019383212
0.0038751406 0.0034802346 0.00026969006 -0.004094276 -0.0001798044 -0.00069200154 -0.0034795138 -0.0041062487
0.004154979 0.0004368713 0.00085310265 -0.0033180593 -0.0040256716 0.0030315295 -0.0007998834 -0.0007079437
-0.0009870005 -0.0016924546 0.0037206342 0.0035448964 0.004055522 0.000316001 -0.00071124407 -0.0019745452
0.0025167647 -0.0031319365 -0.002318358 0.003263434 -0.0040324377 0.0039241076 -0.00093926396 -0.0018899019
0.00062255235 -0.00215923 -0.0032991096 1.29663385e-05 -0.0014653131 -0.0022554684 0.003518986 -1.9690488e-05
0.0020198529 -0.0017987143 -0.0042735473 -0.002435037 -0.00075601833 -0.00039810315 -0.0032904027 0.00050415937
0.003122888 -0.0028000935 -0.0021041953 -0.0011576177 -0.002652472 -0.0019342671 0.00012669154 0.004048147
-0.003930501 -0.00068068854 0.00076418836 -0.0003560232 -0.003459958 -0.002358853 0.0030368664 0.0011974294
0.004311805 0.004192934 0.000690382 0.0004649153 -0.0006546164 0.0017584409 -0.0019261148 0.004041012
0.0025046659 0.0031037387 0.00036998 -0.0029429353 0.0014428836 0.0041608266 0.0031628516 0.0018157628
0.0011169603 0.0019489303 0.0016128663 0.00284635 0.004140659 0.0008307439 0.0005027638 0.0017875228
-0.00029771402 -0.0025101108 0.0015241387 -0.0035533314 -0.0004985195 0.0013269885 -0.0011499035 0.0036996533
-0.004360551 -0.001011079 -0.0014635932 0.0007694084 0.0028345962 -0.003732205 0.0035120756 0.0013609496

features1.0.bias f4 [3]
00000000: 1a62 6d3e 8078 1b3c 51ec 953e
0.23181954 0.009489179 0.29281858

features1.0.weight f4 [3, 1, 3, 3]
00000000: f4ce fe3d 50da 943c 8ed5 07be 6a34 80be
00000010: 89b0 9b3e e86a 2a3d 2221 663e a98e 833e
00000020: f410 e23d 411e 923e e636 793e fd6d 8f3e
00000030: e484 86be 72b9 97be 249a a43d 4029 94be
00000040: 674e 963e c641 e0bd f875 8abe 0205 323e
00000050: 7db3 863e 3be2 4ebe 6079 633d d156 a93e
00000060: f0d2 8abc 18ec 5b3d bc00 f7bd
0.12441817 0.018170506 -0.13265058 -0.2503999 0.30408123 0.04160586 0.22473577 0.2569478
0.1103839 0.28538707 0.24337348 0.28013602 -0.26273263 -0.2963367 0.080372125 -0.2893772
0.2935669 -0.10950045 -0.27043128 0.17384723 0.26308814 -0.20203488 0.055535674 0.33074048
-0.016946286 0.053691953 -0.12060687

features2.0.bias f4 [3]
00000000: 3f38 a2be 5c14 fd3d 3e52 90be
-0.31683537 0.12357399 -0.28187746

features2.0.weight f4 [3, 1, 3, 3]
00000000: 5e69 96be 2aad 3f3e 30aa acbd 6398 963e
00000010: 8c81 e93d 56c3 2abe 3b87 55be d772 a4be
00000020: c256 593e 8b94 31be 5381 8b3e 9698 103e
00000030: d828 6dbe c00d 63bd c1e5 953e 1078 c43d
00000040: baf8 253e e0ec 18bc 8d53 9b3e 12f7 763e
00000050: 68cb 473d 606d d13d 2648 0a3e 8e14 10be
00000060: eb94 983e 91e1 993e 9856 573d
-0.29377264 0.187184 -0.08430898 0.29413137 0.11401662 -0.16676077 -0.20852368 -0.32118866
0.21224502 -0.17341821 0.27247104 0.14120707 -0.23160112 -0.055433035 0.2927685 0.095932126
0.16208163 -0.009333819 0.30337182 0.24117687 0.048777968 0.1022594 0.13504085 -0.14070341
0.29801115 0.30054906 0.052572817

features3.0.bias f4 [5]
00000000: ff8c 893e f6b0 babd 8c54 48be 4687 103e
00000010: e0d0 3cbe
0.26865384 -0.09115784 -0.19563502 0.14114103 -0.18439054

features3.0.weight f4 [5, 10]
00000000: ce0f 373e ba78 c6bd 1034 e9bd 3691 0b3e
00000010: e60c cdbd d0d6 e63d b68a bcbd a986 833e
00000020: 2b83 33be 5864 363e 58e6 223d 78f6 c2bd
00000030: 88cd 353d f093 183e 7082 d43d a6f1 5c3e
00000040: e005 96bc 70d2 ca3c 2143 1ebe 3011 d3bc
00000050: 3387 8abe 940a 48be 2496 4ebe 25ad 80be
00000060: 90c1 d63d aa1a bbbd 9051 ba3d be3f 28be
00000070: 28f7 323d fc6d eabd 13e0 9c3e 108a 113d
00000080: 1000 6e3d 8a9b 5d3e 8040 ef3b c06a 163d
00000090: a660 46be a079 ee3d debe 133e f060 01bd
000000a0: 30a5 993c 1ef6 6b3e fcb7 94be 30da 863c
000000b0: 75b2 86be 2b30 03be 1032 70bd 6b50 92be
000000c0: b03c b1bc 6827 be3d
0.17877123 -0.096909955 -0.11386883 0.13629612 -0.10012226 0.11271441 -0.092061445 0.25688675
-0.17530505 0.17811716 0.039770454 -0.095196664 0.044385463 0.14900184 0.103764415 0.21576557
-0.018313348 0.024758548 -0.15455295 -0.025765032 -0.27056274 -0.19535285 -0.20174462 -0.251321
0.10486138 -0.09135945 0.09097588 -0.16430566 0.043692738 -0.11446759 0.30639705 0.035532057
0.05810553 0.21641365 0.00730139 0.0367229 -0.19372806 0.11644292 0.14428279 -0.031586587
0.018755525 0.23043105 -0.2904662 0.016461462 -0.26308027 -0.12811343 -0.058641493 -0.2857698
-0.021635383 0.0928486
