test/dynamic_conv/weight.onnx (onnx, 976 bytes, 2 tensors)

conv2d.weight f4 [3, 6, 3, 3]
0	0x3d6d0214	0.05786331
1	0xbd47940a	-0.048725165
2	0xbd0a71bc	-0.03379987
3	0x3c1e4470	0.009659871
4	0xbd2f7da2	-0.042844422
5	0x3d8b35ce	0.06797372
6	0xbddda145	-0.10821775
7	0xbdf8a283	-0.12140372
8	0x3d8b0850	0.06788695
9	0x3d1682ec	0.03674595
10	0xbd9d7dec	-0.07690033
11	0xbcae56ec	-0.021281682
12	0xbd98ad74	-0.074549586
13	0x3ca66ca8	0.020315483
14	0xbc571ab8	-0.013128929
15	0xbcb48424	-0.022035666
16	0xbd85d3e0	-0.065345526
17	0x3d84e494	0.0648891
18	0xbda8ff8e	-0.08251868
19	0x3d160404	0.036624923
20	0x3d9389cc	0.07204017
21	0x3d9c0b18	0.076193035
22	0x3d822624	0.06354931
23	0x3de58d50	0.11208594
24	0x3d9fafc0	0.077971935
25	0x3dcf20b0	0.101136565
26	0x3d48e248	0.049043924
27	0x3dd23008	0.102630675
28	0xbd16918c	-0.036759898
29	0x3c33c100	0.010971308
30	0x3db3ab02	0.087728515
31	0x3de289f8	0.11061472
32	0xbd42c8e0	-0.04755485
33	0xbded23aa	-0.11579068
34	0xbdc55c88	-0.096367896
35	0x3d8e61a2	0.06952216
36	0xbd95d180	-0.073153496
37	0x3c2f2420	0.010689765
38	0xbe07eb17	-0.13273273
39	0x3da49cc6	0.08037715
40	0x3c87a210	0.01655677
41	0x3d8f381c	0.06993124
42	0x3de6a620	0.112621546
43	0x3defc5e0	0.117076635
44	0x3db48d0e	0.088159665
45	0x3d35f048	0.044418603
46	0x3cb128b8	0.021625862
47	0x3de424f8	0.11139864
48	0x3d814b78	0.06313223
49	0x3d919022	0.07107569
50	0x3d6c2848	0.057655603
51	0x3d8ba5e8	0.068187535
52	0x3e0230ac	0.1271388
53	0x3d6040f8	0.05474946
54	0xbdd6617e	-0.10467814
55	0xbdcd0130	-0.10009992
56	0x3d88a592	0.06672205
57	0x3c9c97d8	0.019115373
58	0x3d12f8c8	0.035881788
59	0x3dee1810	0.11625683
60	0x3d036fcc	0.03208904
61	0xbdcd303a	-0.10018964
62	0xbba99200	-0.0051748753
63	0x3d8a48f0	0.06752193
64	0x3de3a450	0.111153245
65	0x3d98d8ce	0.07463227
66	0xbba22060	-0.004947707
67	0xbdbb3bd4	-0.09142271
68	0x3b52bbc0	0.0032155365
69	0x3df50614	0.1196405
70	0x3d618604	0.055059448
71	0x3d995540	0.07486963
72	0xba577300	-0.00082187355
73	0x3e03a510	0.12855935
74	0x3df00658	0.1171996
75	0x3cbe3bc8	0.023221865
76	0x3dd712b6	0.10501616
77	0xbd224d8a	-0.03962473
78	0x3dfba0b8	0.12286514
79	0x3c8bce88	0.017066255
80	0x3dc3e094	0.09564319
81	0xbdeca8b2	-0.115556136
82	0x3e0b3524	0.1359449
83	0x3db1d88c	0.08683881
84	0xbd7c13ac	-0.061542198
85	0xbc32f1c0	-0.0109218955
86	0x3dc7bdd8	0.09753007
87	0x3dc34eca	0.09536512
88	0xbd926800	-0.07148743
89	0x3dc11bb2	0.094291106
90	0xbd7bb3fa	-0.061450936
91	0xbddb22fb	-0.10700031
92	0x3dc130d2	0.0943314
93	0xbd4d2af6	-0.0500898
94	0x3ca08e58	0.019599125
95	0xbd9a3802	-0.07530214
96	0xbd3c15c6	-0.045919202
97	0x3ce082e0	0.027406156
98	0xbdf39d7c	-0.11895272
99	0xbe0aefc1	-0.13568021
100	0x3e0a2d52	0.13493851
101	0x3df1decc	0.11810073
102	0xbd6b54ba	-0.05745385
103	0x3d9b32da	0.075780585
104	0xbdcf0020	-0.10107446
105	0xbce66650	-0.028124958
106	0xbd96d587	-0.07364946
107	0xbdeda578	-0.11603826
108	0x3dce0abe	0.10060643
109	0xbded6cae	-0.11592995
110	0x3ce67a38	0.02813445
111	0x3d194e4c	0.037428185
112	0xbd89d12b	-0.06729349
113	0xbc6fc190	-0.014633551
114	0x3e00f4ac	0.12593335
115	0x3b9fb6e0	0.0048740953
116	0xbdc491a6	-0.09598093
117	0xbdab7bb7	-0.08373206
118	0xbd4fc23c	-0.050722346
119	0x3d1fa04c	0.03897123
120	0x3e02e094	0.12780982
121	0x3dbe347e	0.09287356
122	0x3d6f9a70	0.058496892
123	0xbd01c998	-0.031686395
124	0x3d4b77ac	0.049674675
125	0xbdefebb5	-0.117148794
126	0xbdcb938f	-0.09940254
127	0xbdd0f806	-0.10203557
128	0xbd289b36	-0.041163646
129	0x3df00e80	0.11721516
130	0x3d912eda	0.07089014
131	0x3dcdde6c	0.10052189
132	0xbc9ddad4	-0.019269384
133	0xbddd069c	-0.10792276
134	0x3dfe50d0	0.124177575
135	0x3dc43a66	0.09581451
136	0xbcfadfa8	-0.030624226
137	0x3d8241cc	0.06360206
138	0xbd95c8b0	-0.07313669
139	0x3d50ea3c	0.051004633
140	0x3dfc2e74	0.12313548
141	0xbdfe2004	-0.1240845
142	0xbd57a39c	-0.052646264
143	0xbb1afb40	-0.0023648292
144	0xbd3caf16	-0.046065412
145	0x3da3750c	0.07981309
146	0x3daf91de	0.08572744
147	0x3d9c049a	0.07618065
148	0xbd448b46	-0.047984384
149	0xbe063236	-0.13105091
150	0xbc6929a8	-0.014231123
151	0xbda2a3dc	-0.0794141
152	0x3de7140a	0.11283119
153	0xbdcece34	-0.10097924
154	0xbd80f46e	-0.06296621
155	0xbd1bb31e	-0.038012616
156	0x3d8e04aa	0.06934483
157	0x3dcfe144	0.10150388
158	0xbce19a74	-0.02753947
159	0x3d90de54	0.07073656
160	0xbda21418	-0.07913989
161	0xbdfa7ee1	-0.122312315

conv2d.bias f4 [3]
0	0x3d9f0e44	0.07766393
1	0x3a82fe00	0.0009993911
2	0x3cb8d2e0	0.02256149
